Youtube_0531-main/model/mouse_classifier/mouse_classifier_extra1_add6_nogood.tflite (tflite, 6352 bytes, 6 tensors)

sequential/dense/BiasAdd/ReadVariableOp/resource f4 [20]
0	0xbf22a17e	-0.6352767
1	0x3f0f24bd	0.55915433
2	0x3e99cd16	0.3003928
3	0xbe50a2a5	-0.20374544
4	0xbea97e90	-0.33104372
5	0x3e736833	0.23770218
6	0xbf3a76c8	-0.72837496
7	0x3ecbc0aa	0.3979543
8	0xbda0b41c	-0.07846853
9	0x3cab10cb	0.020882031
10	0xbef31a94	-0.47481215
11	0xbec1a83d	-0.37823668
12	0xbe4e5a3b	-0.20151608
13	0xbf238dab	-0.63888043
14	0xbdde0175	-0.10840122
15	0xbe02dc51	-0.12779357
16	0xbf209892	-0.62732804
17	0xbe20f08d	-0.15716763
18	0xbd33207e	-0.04373216
19	0xbeee9de2	-0.4660483

sequential/dense_1/BiasAdd/ReadVariableOp/resource f4 [10]
0	0xbe788372	-0.24268892
1	0x3eed8624	0.46391404
2	0x3eac6b6d	0.3367571
3	0x3ef4d9cf	0.47822425
4	0x3f28c959	0.6593223
5	0x3f2d14f8	0.6761012
6	0x3f16865a	0.58798754
7	0x3e27fedc	0.16405815
8	0x3ee2c8c8	0.4429381
9	0x3e2109ed	0.15726443

sequential/dense_2/BiasAdd/ReadVariableOp/resource f4 [4]
0	0x3f1e39f6	0.6180719
1	0xbf3f3b2f	-0.7469968
2	0xbe714207	-0.23560344
3	0x3eaef4ba	0.34171087

sequential/dense/MatMul f4 [20, 42]
0	0xbe8debfd	-0.27719107
1	0xbe6c8e34	-0.23101121
2	0xbdd9f239	-0.106419034
3	0xbecbfea6	-0.3984272
4	0xbe86bf45	-0.26317802
5	0xbe526e17	-0.20549808
6	0xbe93ed6f	-0.28892085
7	0xbe920f24	-0.28527176
8	0xbf56108e	-0.8361901
9	0xbe5a3589	-0.21309485
10	0x3e1e0a0d	0.15433522
11	0xbdcc37fe	-0.09971617
12	0xbe886689	-0.26640728
13	0x3d10a90a	0.03531746
14	0xbd82fc67	-0.06395798
15	0x3d5bff0e	0.053710036
16	0x3d670bb0	0.05640763
17	0x3d18be7f	0.037291046
18	0x3e5847df	0.21121167
19	0x3bcf472c	0.006325623
20	0xbcf6cfd0	-0.03012839
21	0x3cd44f86	0.025916826
22	0xbcf0737c	-0.029351942
23	0x3d918f7d	0.07107446
24	0x3d86306b	0.06552204
25	0x3d6e55ac	0.05818717
26	0x3de8f265	0.11374358
27	0x3c1f790e	0.0097334515
28	0x3c88667e	0.016650435
29	0x3c679224	0.014133964
30	0x3ea08727	0.31353113
31	0x3cccdbfc	0.02500724
32	0x3f5cbdfb	0.8622739
33	0xbf442694	-0.76621366
34	0x3d926e82	0.07149984
35	0x3dec6283	0.11542227
36	0x3c9a57a0	0.018840611
37	0x3dccdfa4	0.100035936
38	0x3c03facc	0.0080554
39	0x3e16d60f	0.14730094
40	0x3c1c0854	0.00952347
41	0x3db9ac39	0.09066052
42	0x3e0115a4	0.12605911
43	0x3e2ee8c2	0.17080978
44	0x3f302afa	0.6881558
45	0xbed0ba7c	-0.40767276
46	0x3eb51a12	0.35371453
47	0xbda72c6c	-0.0816277
48	0x3eafd1ef	0.34339854
49	0xbce9f7fc	-0.028560631
50	0x3ef7a36d	0.4836687
51	0x3d6a63b7	0.057224
52	0x3eec5fe8	0.4616692
53	0xbe2026bf	-0.1563978
54	0x3daa403d	0.08313034
55	0xbec45cbe	-0.38352007
56	0x3e6044a5	0.21901186
57	0xbea6e4fa	-0.3259657
58	0x3f07f4c2	0.53107846
59	0xbe58ced8	-0.21172655
60	0x3e6d8c0a	0.23197952
61	0xbe74ec99	-0.2391838
62	0xbe1ff4bc	-0.15620703
63	0xbdac8e95	-0.08425633
64	0xbe8d5a3a	-0.276079
65	0xbda0fdcf	-0.0786091
66	0xbe9507ba	-0.29107457
67	0xbdd943e1	-0.1060865
68	0xbde7de55	-0.11321703
69	0xbc99fea3	-0.018798178
70	0xbf17b173	-0.5925514
71	0x3d9f1fca	0.07769735
72	0xbf805676	-1.0026386
73	0x3e178e2c	0.14800328
74	0xbf64470e	-0.8917092
75	0xbea4ae7b	-0.32164368
76	0xbe5296ed	-0.20565386
77	0x3e1ef314	0.15522414
78	0xbee3ffb5	-0.44531026
79	0x3e735022	0.23761037
80	0xbf0b2f0d	-0.5436867
81	0x3e8ef879	0.27923945
82	0xbedf5a62	-0.43623644
83	0x3e86740f	0.2626042
84	0xbe9989af	-0.29987857
85	0x3e595030	0.21221995
86	0x3efa60db	0.4890202
87	0x3cb05f31	0.021529766
88	0x3ed2dfd9	0.41186407
89	0x3c665dd0	0.014060453
90	0x3eff453c	0.4985751
91	0x3d0e8214	0.03479202
92	0x3f2fbb7e	0.68645465
93	0x3d46d371	0.04854149
94	0x3d9aa89f	0.07551693
95	0xbc645ad1	-0.013937668
96	0x3e911ad5	0.28340784
97	0xbd1f1102	-0.03883458
98	0x3e4548ce	0.19266054
99	0xbf6417ad	-0.89098626
100	0xbe4f993b	-0.20273297
101	0x3d9dfc00	0.07714081
102	0xbde0e5ad	-0.10981307
103	0xbcd0e592	-0.025500093
104	0x3e3159b9	0.17319383
105	0xbd7efaf2	-0.06225104
106	0xbe1c106f	-0.15240644
107	0xbd2051ec	-0.039140627
108	0xbede9e69	-0.43480232
109	0xbe22502f	-0.158509
110	0xbd8dc396	-0.06922071
111	0xbd868ab5	-0.06569425
112	0xbe192e4f	-0.14959072
113	0x3d57109c	0.052506074
114	0xbee42d48	-0.44565797
115	0x3e9de80c	0.308411
116	0xbf7ec86a	-0.9952456
117	0x3ea57436	0.32315224
118	0xbdbcafee	-0.092132434
119	0x3cb76d47	0.022390975
120	0xbe8e1455	-0.27749887
121	0x3db7bc37	0.08971446
122	0xbed28d08	-0.41123223
123	0x3e533719	0.20626487
124	0xbeef7a61	-0.46773055
125	0x3e7e698a	0.24844947
126	0x3db8a658	0.090161026
127	0x3e08149e	0.13289115
128	0x3f9e08ab	1.2346395
129	0xbd4066f3	-0.04697318
130	0x3f7705e8	0.9649339
131	0xbca27f10	-0.019835979
132	0x3f4fddb2	0.81197655
133	0xbd8dd4ba	-0.0692534
134	0x3f11f21e	0.57010067
135	0x3d09848c	0.033573672
136	0x3e6e8ad9	0.23295154
137	0x3d4f02df	0.050539847
138	0xbd744b4f	-0.059642132
139	0x3d2aa8b2	0.041664787
140	0x3df29ec2	0.11846687
141	0x3d878642	0.066174045
142	0x3e9f9cd9	0.31174353
143	0x3d6af839	0.05736563
144	0x3bc7a17f	0.00609225
145	0x3d004ee6	0.031325243
146	0xbdb94d9f	-0.09048008
147	0x3e013b09	0.12620176
148	0xbebadb04	-0.3649522
149	0x3d55127f	0.052019592
150	0xbec1ed3e	-0.37876314
151	0xbc20c89f	-0.009813457
152	0x3e3fb939	0.18723
153	0x3bcaa267	0.0061839106
154	0xbcb1cb76	-0.021703463
155	0x3b56d27d	0.003277927
156	0x3e67d3cc	0.22639388
157	0xbe41b656	-0.18917212
158	0x3e995fa1	0.29955772
159	0xbebe4e3d	-0.37169066
160	0x3dbe2e89	0.092862196
161	0xbea59242	-0.32338148
162	0xbcb06ba3	-0.0215357
163	0xbe8fe522	-0.28104502
164	0xbdb20095	-0.08691517
165	0xbd9d32b4	-0.076756865
166	0xbd8caeca	-0.06869276
167	0xbdda5ed0	-0.10662615
168	0xbe015cba	-0.12633029
169	0x3e74bfe0	0.2390132
170	0xbe08be41	-0.13353826
171	0xbf33a761	-0.70177275
172	0xbd0bd1d3	-0.03413565
173	0xbecefafb	-0.40425858
174	0xbe29c5f5	-0.16579421
175	0xbe8e5b83	-0.27804193
176	0xbe932fea	-0.28747493
177	0xbe4e7a5e	-0.20163867
178	0x3ea90cd2	0.33017594
179	0xbd632d8e	-0.055463366
180	0xbe4b9807	-0.19882213
181	0x3da49e83	0.08038046
182	0xbe4d00d0	-0.20019841
183	0x3df71ffa	0.12066646
184	0xbda6ccc5	-0.081445254
185	0x3e0a0118	0.1347698
186	0x3eb89990	0.3605466
187	0x3c90aa99	0.017659472
188	0xbde51c52	-0.11187042
189	0x3de3a3a5	0.11115197
190	0xbc22c7f4	-0.009935368
191	0x3e1b005d	0.15136857
192	0x3df16fd8	0.117889106
193	0x3de13c34	0.10997811
194	0x3e7f37dd	0.24923654
195	0x3e29bd6c	0.16576165
196	0xbdd7aac0	-0.10530615
197	0x3e34c1fb	0.17652123
198	0xbe2f816e	-0.17139217
199	0x3ea2e198	0.3181274
200	0xbd0d5869	-0.034508143
201	0x3eecae59	0.46226767
202	0xbbf675c5	-0.0075213634
203	0x3ea71096	0.32629842
204	0xbc917f85	-0.017761001
205	0x3e873e78	0.26414847
206	0x3e60ba99	0.21946181
207	0x3e2a590c	0.16635531
208	0x3f18e24c	0.597203
209	0xbfd2185a	-1.6413682
210	0x3e2e20b6	0.17004666
211	0x3ba77440	0.0051102936
212	0x3e9ebd67	0.31003878
213	0xbd2ceb94	-0.042216852
214	0x3e3a230b	0.1817743
215	0x3db1ca34	0.08681145
216	0x3e6eb253	0.23310213
217	0x3d62c395	0.055362303
218	0x3e86c60c	0.26322973
219	0x3dbef4ef	0.09324061
220	0xbeae71a4	-0.34071076
221	0xbd9a9a4d	-0.07548962
222	0xbd4cd979	-0.050012086
223	0x3caee48b	0.021349212
224	0x3f437a98	0.7635894
225	0x3d0ad0db	0.033890586
226	0x3f95ecf7	1.1712941
227	0xbed7dc34	-0.4216019
228	0xbe2e61e6	-0.17029533
229	0xbd4a8715	-0.04944523
230	0xbe70297d	-0.23453327
231	0xbdf2c194	-0.11853328
232	0x3e2b742c	0.16743535
233	0xbeaf711f	-0.34265992
234	0x3f426e74	0.7594979
235	0xbeb29a25	-0.34883228
236	0xbdadea39	-0.0849194
237	0xbda06199	-0.07831115
238	0xbe76fb5e	-0.24119326
239	0xbd1eff58	-0.038817734
240	0xbebf1e84	-0.3732797
241	0x3e08476b	0.13308494
242	0xbe1d6902	-0.15372089
243	0xbd41aad3	-0.04728205
244	0xbdf18c3c	-0.11794326
245	0xbd0c02b0	-0.03418225
246	0xbe46c61b	-0.19411509
247	0x3d97f27d	0.07419298
248	0xbe3fef26	-0.18743572
249	0x3e0c4406	0.13697824
250	0xbe195157	-0.14972435
251	0x3dffaf95	0.124846615
252	0x3e09f1d8	0.13471162
253	0x3d169f98	0.036773294
254	0xbe166a51	-0.14688994
255	0x3f1400e4	0.5781386

sequential/dense_1/MatMul f4 [10, 20]
0	0x3eb49d6f	0.35276362
1	0x3eb1e499	0.3474472
2	0x3e1c9bd3	0.15293817
3	0x3dfd5d45	0.123713054
4	0xbd1f437e	-0.038882725
5	0x3eb93e8b	0.3618053
6	0x3ef7653f	0.48319432
7	0x3e4190d1	0.189029
8	0x3f098e6e	0.53732955
9	0x3f8c6b7a	1.0970299
10	0x3fbe7ee1	1.488247
11	0x4006d69a	2.1068482
12	0x3f21d513	0.6321575
13	0x3d05db4d	0.032679845
14	0x3f4a5596	0.79036844
15	0xbb03d01e	-0.0020113061
16	0x3da58f47	0.080839686
17	0x400be111	2.185612
18	0x3f5cbcfa	0.86225855
19	0x3d2b807c	0.04187058
20	0xbc27e6aa	-0.010247866
21	0xbe69d7b7	-0.22836195
22	0xbf023f3b	-0.5087773
23	0xbea5fa6b	-0.32417616
24	0xbf80246f	-1.0011119
25	0xbd60fe54	-0.054930046
26	0xbd90717c	-0.070528954
27	0xbda5a71b	-0.080885135
28	0x3e9fe327	0.3122799
29	0xbe42137f	-0.1895275
30	0xbdadfc26	-0.08495359
31	0xbe83b01a	-0.25720292
32	0x3e3b2f8f	0.18279861
33	0x3f6408e7	0.89076084
34	0xbca99bcb	-0.02070417
35	0x3bfb3e4f	0.00766734
36	0xbfa89868	-1.3171511
37	0xbe9618eb	-0.29315886
38	0xbf8d2bb5	-1.1028963
39	0x3cc3fce7	0.023924304
40	0x3e7172ed	0.23578997
41	0x3f67f0e9	0.90601975
42	0x3f943094	1.1577325
43	0x3f70f9b0	0.9413099
44	0xbddcc6d8	-0.10780114
45	0x3f23dbee	0.6400746
46	0xbedc0bca	-0.42977744
47	0x3f947c0f	1.160036
48	0x3f1b40d6	0.60645807
49	0x3f5c2504	0.8599398
50	0x3ee7c644	0.45268452
51	0xbd691ff8	-0.056915253
52	0x3e4eab19	0.20182456
53	0x3c0993fa	0.008397097
54	0x3f3158bd	0.6927603
55	0x3f5dd036	0.8664583
56	0x3d25aac6	0.040446065
57	0xbd07cb8a	-0.033153094
58	0x3fd7c50a	1.6857007
59	0x3f40903c	0.75220084
60	0xc009d241	-2.1534579
61	0x3ddd8b3e	0.10817574
62	0x3e10a485	0.14125259
63	0xbeea76fe	-0.4579391
64	0xc01c120b	-2.4386013
65	0x3cc4e640	0.024035573
66	0x3d9dc8c0	0.07704306
67	0xbe5b2198	-0.21399534
68	0xbd579c8b	-0.052639525
69	0xbf961bb8	-1.1727209
70	0xbfde7249	-1.7378627
71	0x3e8f38b3	0.27972946
72	0x3e1b7bac	0.15183896
73	0xbfac9274	-1.3482194
74	0xbfca127f	-1.5786895
75	0x3e283b92	0.16428974
76	0xbf91b2b5	-1.1382662
77	0x3e949fe0	0.29028225
78	0xbfbdfaa6	-1.4842117
79	0xbdcca4c0	-0.09992361
80	0x3ea8b0ad	0.32947293
81	0xbe7b058e	-0.24513838
82	0xbf2c8bfa	-0.6740109
83	0xbf22cf23	-0.63597316
84	0x3f93d289	1.1548625
85	0xbebfe5cf	-0.37480018
86	0x3ed7ebb4	0.42172015
87	0x3e5507fe	0.2080383
88	0x3dfb7d5b	0.12279769
89	0x3f7d3180	0.98903656
90	0xbeb96237	-0.36207744
91	0x3bbfb86a	0.0058508413
92	0xbddc5f10	-0.10760319
93	0x3ed00b45	0.40633598
94	0xbf2756d7	-0.6536688
95	0x3c9a17cb	0.018810173
96	0x3fad5872	1.3542616
97	0xbde5f07d	-0.1122751
98	0x3f574259	0.84085613
99	0xbeb29e8a	-0.3488658
100	0xbee119f2	-0.43965107
101	0x3d8232a2	0.06357314
102	0x3e27692c	0.16348714
103	0xbd55ab80	-0.05216551
104	0xbd1b86fe	-0.037970535
105	0x3f3356e0	0.70054436
106	0xbe8c6cfa	-0.27426893
107	0x3dc16dba	0.09444757
108	0x3f3d385b	0.73914117
109	0xbec5daff	-0.38643643
110	0xbf00c280	-0.50296783
111	0x3ef1745b	0.47159085
112	0x3f1ac085	0.6045001
113	0xbca2c5d3	-0.01986972
114	0xbec8b9c8	-0.3920424
115	0xbf49505c	-0.78638244
116	0xbcdaceb4	-0.026709892
117	0x3e9878ec	0.29779756
118	0xbe89ed4d	-0.2693886
119	0x3ecd6942	0.40119368
120	0x3df61c2b	0.12017091
121	0x3bfa58b4	0.007639969
122	0x3d17441b	0.036930185
123	0x3e5d9095	0.21637185
124	0xbf8c0822	-1.0939982
125	0xbfb3dad6	-1.4051158
126	0xbdc84bab	-0.097800575
127	0x3e870028	0.26367307
128	0x3e830e5d	0.25596896
129	0xbd992b1d	-0.07478926
130	0xbf0adb98	-0.54241323
131	0xbc6dd95a	-0.014517153
132	0x3e48e780	0.1961956
133	0xbb7347bf	-0.0037121621
134	0xbd5ce10e	-0.053925566
135	0xbc9246e6	-0.017856073
136	0x3d928821	0.07154871
137	0xbe52b321	-0.20576145
138	0xbc487ad6	-0.012236318
139	0xbfa67e19	-1.3007232
140	0x3da189d0	0.07887614
141	0x3c63fc82	0.013915183
142	0x3cbf7ea5	0.023375819
143	0x3d8519df	0.06499075
144	0x3f25733f	0.64628977
145	0x3d3fd2b8	0.046831816
146	0x3f5442cd	0.8291443
147	0x3a14adb2	0.00056716346
148	0x3e40ef97	0.18841396
149	0xbfb7a731	-1.4347898
150	0x3f6a896f	0.9161596
151	0x3f95db7d	1.1707608
152	0xbfa4be5d	-1.2870594
153	0xbe8853cf	-0.2662644
154	0xbf89e70a	-1.0773633
155	0xbc6ac062	-0.014328094
156	0xbde1ceb8	-0.110257566
157	0x3f89e992	1.0774405
158	0x3f762a90	0.96158695
159	0x3c621482	0.013798835
160	0x3f0b8052	0.54492676
161	0x3de481cd	0.1115757
162	0x3ecfaaa3	0.40559873
163	0x3eabd7ec	0.33563173
164	0x3f738f6a	0.9514071
165	0xbd423503	-0.047413837
166	0x3ed9627c	0.4245795
167	0x3e28b8e8	0.16476786
168	0xbd8c06d3	-0.06837239
169	0x3e46a231	0.19397809
170	0x3f1741bc	0.5908468
171	0x3f3c9e1b	0.7367875
172	0x3ee01c93	0.437718
173	0xbfc30cbc	-1.5238261
174	0x3f12ffc6	0.5742153
175	0xbc961a84	-0.01832319
176	0xbf9eb6bc	-1.2399516
177	0x3ed0fb6a	0.40816814
178	0xbe742274	-0.23841268
179	0xbe02bc7b	-0.12767212
180	0xbf6493a7	-0.892878
181	0x3e479adb	0.19492666
182	0x3ea03fe1	0.31298736
183	0x3e7da411	0.24769618
184	0xbd332f6c	-0.043746397
185	0x3ce06b07	0.027394785
186	0x3f0c2838	0.5474887
187	0xbe94470e	-0.2896046
188	0x3e255e91	0.16149355
189	0xbed9639d	-0.4245881
190	0x3c04825c	0.008087721
191	0x3f9b3a0f	1.2127093
192	0x3f78dffb	0.9721677
193	0x3c960740	0.018314004
194	0xbefeba6e	-0.4975161
195	0x3f4a5ff1	0.79052645
196	0x3d82284c	0.06355342
197	0x3f686490	0.90778446
198	0xbf9ef083	-1.2417148
199	0x3ed2c523	0.41166028

sequential/dense_2/MatMul f4 [4, 10]
0	0xbf14a861	-0.58069426
1	0xbf83f6f1	-1.0309736
2	0x3f8194d6	1.0123546
3	0xbf0e4b68	-0.5558381
4	0xbf5cc406	-0.8623661
5	0x3ec8083c	0.39068782
6	0x3efc929d	0.49330607
7	0xc00ed445	-2.231706
8	0xbfaca327	-1.348729
9	0x3df67046	0.12033133
10	0x3f29047a	0.66022456
11	0xbf5bd070	-0.85864925
12	0xbe017fa2	-0.12646344
13	0x3fcc1cc6	1.5946281
14	0xbf95b821	-1.1696817
15	0x3ebb8492	0.3662458
16	0xbcbb11e6	-0.022835683
17	0x3f62f8ba	0.88660777
18	0xbf0a6b75	-0.54070216
19	0x3f750619	0.9571243
20	0x3f6536aa	0.89536536
21	0x3f3091f2	0.68972695
22	0x3ed85e89	0.42259625
23	0xbf943397	-1.1578244
24	0x3ee3a6c1	0.4446316
25	0xbf1b9e3e	-0.60788333
26	0xbf881196	-1.0630367
27	0x3e1cc76f	0.15310453
28	0x3f297a23	0.6620199
29	0x3df86f31	0.12130583
30	0xc001d96c	-2.0288954
31	0x3f82edb1	1.0228788
32	0xbfd8fcbe	-1.6952131
33	0x3f07c698	0.53037405
34	0x3f4c8745	0.79893905
35	0xc0177be2	-2.3669362
36	0x3f4f6c73	0.81024855
37	0x3f33d438	0.70245695
38	0x3f63d350	0.8899431
39	0xbfae600c	-1.3623061
