Youtube_0531-main/model/mouse_classifier/mouse_classifier_final1.tflite (tflite, 6352 bytes, 6 tensors)

sequential/dense/BiasAdd/ReadVariableOp/resource f4 [20]
-0.6454519 -0.10494875 -0.19697289 -0.11645033 0.12209706 -0.11104693 -0.35783666 -0.3847343
-0.29909924 0.05998487 -0.40688533 -0.2350937 0.025730876 -0.6486764 -0.100349315 0.01913824
0.42875654 -0.59094775 -0.24303962 -0.59619975
00000000: 563c 25bf 5fef d6bd 43b3 49be 837d eebd
00000010: 060e fa3d 936c e3bd 5e36 b7be e5fb c4be
00000020: 8923 99be b2b2 753d 4653 d0be 67bc 70be
00000030: 8fc9 d23c a80f 26bf f183 cdbd ccc7 9c3c
00000040: fa85 db3e 5a48 17bf 61df 78be 8ca0 18bf

sequential/dense_1/BiasAdd/ReadVariableOp/resource f4 [10]
0.75241715 0.6716546 0.18302216 -0.5241338 0.25730583 -0.34492213 -0.17566694 0.51063097
-0.11937279 0.52087057
00000000: 699e 403f 8ef1 2b3f 296a 3b3e a22d 06bf
00000010: 97bd 833e a299 b0be 09e2 33be b6b8 023f
00000020: b979 f4bd c657 053f

sequential/dense_2/BiasAdd/ReadVariableOp/resource f4 [4]
0.66898084 -0.3846634 -0.23352273 -0.023762751
00000000: 5442 2b3f 9af2 c4be 9520 6fbe 1aaa c2bc

sequential/dense/MatMul f4 [20, 42]
-0.023700058 0.088851064 -0.37979954 -0.05486182 -0.24006335 -0.24054185 -0.66148865 -0.24469933
-0.53146815 -0.41183203 0.15021084 -0.0021571415 0.02050851 -0.004747334 -0.062282093 0.018206347
-0.07415726 0.017734423 0.10490844 0.035922926 0.060705315 0.069915965 -0.08072459 0.11133726
-0.13993974 0.090427496 0.08096742 0.06997808 0.11137806 0.076482214 0.11294149 0.16485876
0.07093538 0.078922436 0.13246131 0.05540294 0.34265053 0.017611634 0.7579378 0.031022603
0.8989765 -0.13821065 -0.24412012 0.099270105 -0.09317158 0.41346228 -0.059475202 0.11307279
-0.10075068 0.0011939878 -0.058061764 0.014165659 -0.03908604 0.04878337 -0.16014889 0.117424846
-0.041157324 0.19900507 -0.007858042 0.15078339 0.050443903 0.02939736 -0.09805757 0.11796288
-0.1372048 0.20455757 -0.16765204 -1.5989704 0.14576124 0.030173674 -0.046225425 0.106198356
0.07625334 0.24641092 0.20321995 0.0017902952 0.21230675 0.11863518 0.029073324 0.1216335
-0.009896988 0.123042636 0.00930699 0.11885635 0.22125053 0.29850364 0.6667529 -0.37865877
0.93524086 -0.15069613 0.8795983 -0.23771757 0.754454 -0.25736037 0.5265116 -0.030081231
-0.28483635 0.087662674 -0.31447226 0.12162162 -0.18125293 0.16168448 0.49903622 0.084958926
-0.17426693 0.06518184 -0.09631288 0.03335202 0.05657979 -0.006609822 0.4367816 0.20159346
-0.2893056 0.03711571 -0.44647083 -0.2836616 -0.53272206 -0.41521496 0.19483423 0.43129906
-0.30222353 0.14248693 -0.4043614 0.041407544 -0.4325753 0.12440709 0.18512711 -0.080040574
-0.050464254 -0.56033677 0.19137628 -0.48192316 -0.054358773 -0.49390823 0.059433635 -0.39809412
0.44896254 -0.1510931 -0.2764375 0.065601364 -0.11836836 0.20204198 0.05270547 0.18828522
0.408298 -0.044183943 -0.21476853 0.119885325 -0.057308987 0.085210346 0.09097666 0.118561216
0.26203316 0.24871646 -0.22627808 0.25473732 -0.07866207 0.19787015 0.12427587 0.0037775936
0.15722927 0.6274984 -0.14991406 0.62525344 -0.19147426 0.62716514 -0.08258564 0.56782067
0.216645 0.0031497777 -0.096518144 0.7511439 0.007107203 0.390966 0.015717126 0.29186356
0.020895941 0.27112198 -0.029143216 0.11899727 0.030712502 0.09251799 0.0743697 0.07843719
0.06225984 0.08311154 -0.04985369 0.09692498 0.024184996 0.093112834 0.027499026 0.099686794
0.01428722 -1.2099113 -0.06831205 0.028297937 0.04905326 0.097606525 -0.018034045 0.15527372
0.0032282663 0.2545795 -0.03465081 -0.010633451 -0.0024392786 0.0037784283 -0.11620382 -0.093250915
-0.30070496 -0.27699676 0.05940184 0.27444476 0.32517448 -0.45372748 0.24606003 -0.34468547
0.17893095 -0.036193874 0.04131807 -0.16633971 0.26083118 -0.046458934 -0.17517798 0.036586903
-0.12575449 0.089049354 -0.016846996 0.11451723 0.22687265 -0.0009822644 -0.09764596 0.085060164
0.0039125956 0.101445444 0.11962358 0.04465513 0.16388898 0.105702855 -0.1034143 0.09988309
-0.11333389 0.18666627 -0.19322462 0.3907136 0.00022195178 0.2549407 -0.065407105 0.14315172
-0.015915118 0.21264547 -0.064766295 -1.4008263 0.19409841 0.2451576 0.21125668 -0.15555117
00000000: a026 c2bc 8cf7 b53d 1675 c2be cab6 60bd
00000010: 2bd3 75be 9a50 76be 5257 29bf 7692 7abe
00000020: 4c0e 08bf a6db d2be dfd0 193e d45e 0dbb
00000030: 7601 a83c 868f 9bbb 821b 7fbd 7a25 953c
00000040: c3df 97bd c847 913c 3cda d63d eb23 133d
00000050: 23a6 783d 1a30 8f3d ef52 a5bd ca04 e43d
00000060: 5d4c 0fbe 0d32 b93d 3fd2 a53d ab50 8f3d
00000070: 2e1a e43d b5a2 9c3d de4d e73d bcd0 283e
00000080: 9246 913d 16a2 a13d f0a3 073e 31ee 623d
00000090: e46f af3e 4646 903c 3608 423f 1d23 fe3c
000000a0: 5323 663f 1887 0dbe a0fa 79be 204e cb3d
000000b0: bed0 bebd 54b1 d33e 459c 73bd b592 e73d
000000c0: 5f56 cebd 957f 9c3a 2cd2 6dbd 1517 683c
000000d0: af18 20bd 12d1 473d 12fe 23be 707c f03d
000000e0: 9594 28bd fcc7 4b3e 04bf 00bc f666 1a3e
000000f0: 449e 4e3d bbd2 f03c 68d2 c8bd 8696 f13d
00000100: 6a7f 0cbe 8a77 513e faac 2bbe 10ab ccbf
00000110: 6f42 153e c82e f73c df56 3dbd 867e d93d
00000120: b62a 9c3d 2553 7c3e e418 503e 57a8 ea3a
00000130: f166 593e 00f7 f23d 2e2b ee3c fc1a f93d
00000140: fa26 22bc c7fd fb3d 587c 183c f56a f33d
00000150: 808f 623e 78d5 983e 51b0 2a3f 90df c1be
00000160: f26b 6f3f 1650 1abe 5b2d 613f 3c6c 73be
00000170: e623 413f bdc4 83be 77c9 063f ea6c f6bc
00000180: 12d6 91be 7d88 b33d 8202 a1be c214 f93d
00000190: 5e9a 39be 9e90 253e ad81 ff3e f2fe ad3d
000001a0: 0873 32be 0e7e 853d b03f c5bd 219c 083d
000001b0: 36c0 673d 3597 d8bb d6a1 df3e 846e 4e3e
000001c0: dd1f 94be a506 183d d397 e4be 183c 91be
000001d0: 7960 08bf 0e97 d4be a082 473e 3bd3 dc3e
000001e0: 0bbd 9abe 18e8 113e 7508 cfbe f59a 293d
000001f0: 827a ddbe 25c9 fe3d f691 3d3e 50ec a3bd
00000200: 9bb3 4ebd 3b72 0fbf 25f8 433e a2be f6be
00000210: 4ea7 5ebd 8ae1 fcbe af70 733d fed2 cbbe
00000220: 6bde e53e 26b8 1abe 3789 8dbe 025a 863d
00000230: 1c6b f2bd 18e4 4e3e b1e1 573d d7cd 403e
00000240: 6f0c d13e 39fa 34bd 48ec 5bbe 7086 f53d
00000250: d4bc 6abd c382 ae3d f951 ba3d 39d0 f23d
00000260: 3629 863e 87af 7e3e 71b5 67be ee6c 823e
00000270: 9419 a1bd 799e 4a3e 5984 fe3d 8191 773b
00000280: b600 213e bca3 203f 1283 19be 9c10 203f
00000290: d411 44be e58d 203f a922 a9bd b25c 113f
000002a0: 30d8 5d3e 806c 4e3b 4eab c5bd f74a 403f
000002b0: 8ae3 e83b b22c c83e 34c1 803c 246f 953e
000002c0: f72d ab3c 80d0 8a3e c1bd eebc d7b4 f33d
000002d0: c998 fb3c 127a bd3d 244f 983d ada3 a03d
000002e0: 2d04 7f3d 6236 aa3d 6233 4cbd 9b80 c63d
000002f0: 9d1f c63c f1b1 be3d a345 e13c 9728 cc3d
00000300: f214 6a3c 60de 9abf 30e7 8bbd 13d1 e73c
00000310: 12ec 483d eee5 c73d 22bc 93bc 1300 1f3e
00000320: 5291 533b 3f58 823e 02ee 0dbd ed37 2ebc
00000330: 4edc 1fbb 829f 773b 45fc edbd 56fa bebd
00000340: 00f6 99be 85d2 8dbe 584f 733d 0684 8c3e
00000350: 457d a63e f84e e8be 29f7 7b3e 9d7a b0be
00000360: ad39 373e 0740 14bd 233d 293d f554 2abe
00000370: aa8b 853e b94b 3ebd db61 33be 26dc 153d
00000380: c9c5 00be 825f b63d b602 8abc 0288 ea3d
00000390: 4e51 683e 53bf 80ba 9bfa c7bd 0634 ae3d
000003a0: 3b35 803b a1c2 cf3d 35fd f43d 4ce8 363d
000003b0: 83d2 273e bd7a d83d e0ca d3bd 818f cc3d
000003c0: 991b e8bd 7125 3f3e addc 45be 9d0b c83e
000003d0: babb 6839 9687 823e 29f4 85bd 5d96 123e
000003e0: 6c60 82bc bcbf 593e 31a4 84bd 474e b3bf
000003f0: bcc1 463e 980a 7b3e ac53 583e ce48 1fbe

sequential/dense_1/MatMul f4 [10, 20]
0.6495776 -0.09901627 0.52185804 0.1444898 0.18308099 1.0656374 -1.1064038 -0.5628377
0.7845477 -0.38965732 1.174386 -0.10472082 -1.2741736 0.34219316 -0.06506366 0.9451871
-0.040016733 0.53215474 0.29046923 0.4958424 -0.076050505 1.2084411 0.9570019 0.022203801
-0.42048284 -0.24567704 0.72169966 1.1280254 0.22623536 0.58077204 -0.14129573 0.011462237
0.7065995 -0.19278322 0.87385815 -0.27141756 1.0278124 -0.031943426 1.0858672 0.08708523
0.053294197 0.8752792 1.3444792 0.63437694 -0.29701462 -0.103895515 0.51696706 -0.09277841
0.10758308 0.018508872 0.08441688 -0.8064423 -0.7225612 0.046509285 0.18843916 0.21637455
0.011695161 0.47538272 0.7323818 0.09257209 -0.06691984 1.053379 0.29322752 -0.72414017
-0.026832763 -0.49801308 -0.17527887 0.10404079 -0.014247566 1.7529455 -0.3187909 -0.61769193
0.23858121 0.77140945 0.031231014 -0.22144692 0.5544928 -0.039685786 -0.10940041 -0.02295394
-1.0871755 0.3128128 -0.119689286 -0.47267973 0.11748352 -1.0175488 -0.018569995 0.04691258
-0.7774276 -0.7722785 -1.071531 0.55165714 -0.038970575 -1.0088725 0.018430114 -0.58346707
0.5157234 -0.85878617 -0.17690212 -0.97605795 0.017542992 -0.41468138 0.10450169 0.9594432
-0.29340184 0.443235 0.65052336 0.67705226 -0.12980644 -0.62755185 0.57542074 -0.26599526
0.24334674 -0.3791427 0.09783879 0.32728982 -0.17756592 -0.8889376 0.36136055 -0.74778235
-0.36597624 0.7019179 -0.5333903 0.16888367 1.1928458 0.28711092 0.38863876 0.06516917
-0.5165818 1.6264645 0.18774292 0.011530018 0.05468305 -0.43064764 0.06110155 0.052938942
0.3924026 -0.6110938 0.0066143875 -0.24396521 -0.9161208 0.42984825 -0.32171124 -0.38839903
0.44407514 -0.2109364 -0.0034253402 0.26423308 0.19299357 0.22235437 0.011826978 0.2723651
-0.016648265 0.10642651 0.19127141 0.4025387 -2.261875 0.20678025 0.13953806 0.18906826
0.44913542 0.2558128 0.8757255 0.73080564 0.7923189 0.8858665 0.46383083 0.0006176982
0.11257551 0.32487684 0.26823226 -0.20308234 -0.027356224 0.48821422 0.26172924 0.9033727
0.22793715 0.35203323 0.059298374 0.4684184 -0.8070694 0.20727962 -0.5396094 -1.012666
-0.12801261 -1.1647537 -0.42188665 0.08321718 0.0017386286 0.5643964 -0.9801559 0.36889938
-0.20331433 -1.4629602 0.2013497 -1.2531943 0.42345637 -0.9217675 0.41472828 -0.86949766
00000000: b84a 263f 0bc9 cabd 7d98 053f 22f5 133e
00000010: 9579 3b3e ce66 883f a49e 8dbf 2216 10bf
00000020: 1ed8 483f 2a81 c7be 4852 963f df77 d6bd
00000030: 1f18 a3bf f133 af3e 1940 85bd c8f7 713f
00000040: 96e8 23bd 4b3b 083f 62b8 943e 0edf fd3e
00000050: 5ec0 9bbd 33ae 9a3f 14fe 743f bfe4 b53c
00000060: 8749 d7be c392 7bbe 4fc1 383f 2363 903f
00000070: 3eaa 673e 7aad 143f d4af 10be 1bcc 3b3c
00000080: b4e3 343f f768 45be 2bb5 5f3f 3ef7 8abe
00000090: 5b8f 833f 1cd7 02bd b2fd 8a3f be59 b23d
000000a0: 044b 5a3d 4c12 603f e517 ac3f 8766 223f
000000b0: 4d12 98be 2cc7 d4bd f457 043f 9b02 bebd
000000c0: 8554 dc3d eb9f 973c c2e2 ac3d 0173 4ebf
000000d0: c5f9 38bf 8580 3e3d 32f6 403e 4a91 5d3e
000000e0: 109d 3f3c 5d65 f33e 607d 3b3f 7096 bd3d
000000f0: 450d 89bd 20d5 863f eb21 963e 4061 39bf
00000100: 62d0 dbbc 92fb febe 4e7c 33be 5613 d53d
00000110: a06e 69bc 8560 e03f 9038 a3be 0f21 1ebf
00000120: a24e 743e 177b 453f 2fd8 ff3c fbc2 62be
00000130: 3df3 0d3f 908d 22bd 520d e0bd e709 bcbc
00000140: 9128 8bbf 0029 a03e a81f f5bd 1403 f2be
00000150: 339b f03d 0a3f 82bf 1a20 98bc 6827 403d
00000160: 7f05 47bf 0bb4 45bf ee27 89bf 6739 0d3f
00000170: 9c9f 1fbd bc22 81bf c0fa 963c 195e 15bf
00000180: 7306 043f 69d9 5bbf d425 35be efde 79bf
00000190: 52b6 8f3c 1e51 d4be fb04 d63d 129e 753f
000001a0: c438 96be b3ef e23e b388 263f 4c53 2d3f
000001b0: fbeb 04be 3da7 20bf c64e 133f 8830 88be
000001c0: e32f 793e fe1e c2be b45f c83d 8892 a73e
000001d0: d7d3 35be 6a91 63bf 4004 b93e aa6e 3fbf
000001e0: 3d61 bbbe e4b0 333f 448c 08bf d7ef 2c3e
000001f0: 2caf 983f 3400 933e a9fb c63e 6a77 853d
00000200: b43e 04bf fd2f d03f ae3f 403e 67e8 3c3c
00000210: 55fb 5f3d d97d dcbe 9e45 7a3d 81d6 583d
00000220: fee8 c83e a570 1cbf 81bd d83b 04d2 79be
00000230: e586 6abf 1215 dc3e 56b7 a4be 3ddc c6be
00000240: d15d e33e b6ff 57be ac7b 60bb 8f49 873e
00000250: 1ba0 453e ddb0 633e f1c5 413c 7073 8b3e
00000260: f161 88bc 24f6 d93d a7dc 433e 8d19 ce3e
00000270: 8fc2 10c0 34be 533e 11e3 0e3e 1c9b 413e
00000280: 14f5 e53e e5f9 823e 8c2f 603f 1416 3b3f
00000290: 69d5 4a3f 26c8 623f 3c7b ed3e 06ed 213a
000002a0: fd8d e63d 4256 a63e bd55 893e d1f4 4fbe
000002b0: 291a e0bc 37f7 f93e 6001 863e 6f43 673f
000002c0: 5b68 693e b33d b43e dae2 723d 89d4 ef3e
000002d0: 1a9c 4ebf 1c41 543e d723 0abf 0a9f 81bf
000002e0: bd15 03be a616 95bf 8701 d8be c56d aa3d
000002f0: b2e2 e33a 487c 103f 7feb 7abf 61e0 bc3e
00000300: a231 50be 4842 bbbf 9e2e 4e3e ac68 a0bf
00000310: 46cf d83e f4f8 6bbf 4457 d43e 6697 5ebf

sequential/dense_2/MatMul f4 [4, 10]
-0.55708045 1.0437256 0.45759603 -0.6263072 -0.58479196 0.11074145 -1.6017978 -0.9269409
-1.1955553 0.5825543 -1.55451 0.096100174 -0.1113352 0.9540366 1.3411318 -0.7175026
0.879498 1.220121 0.0902165 1.0738358 0.054870434 0.49731418 0.98933 0.71979725
-0.62289083 0.8986433 0.72171503 -0.5866407 0.7663184 -0.9215893 0.93727416 -1.7164967
-0.04022652 -1.2920998 -0.771174 -0.53212345 -0.04937174 0.24013051 0.32988077 -1.225074
00000000: d39c 0ebf cd98 853f 074a ea3e ab55 20bf
00000010: edb4 15bf 6acc e23d b607 cdbf 004c 6dbf
00000020: f507 99bf 4722 153f 2ffa c6bf 2bd0 c43d
00000030: b603 e4bd be3b 743f 35aa ab3f 40ae 37bf
00000040: c826 613f ed2c 9c3f 6ec3 b83d 7473 893f
00000050: d2bf 603d f79f fe3e bb44 7d3f a244 383f
00000060: c675 1fbf 7d0d 663f 51c2 383f 162e 16bf
00000070: 712d 443f 47ed 6bbf 33f1 6f3f 2ab6 dbbf
00000080: 90c4 24bd 8763 a5bf a96b 45bf 3e39 08bf
00000090: 063a 4abd c6e4 753e 22e6 a83e 3acf 9cbf
