Youtube_0531-main/model/mouse_classifier/mouse_classifier.tflite (tflite, 6320 bytes, 6 tensors)

sequential/dense/BiasAdd/ReadVariableOp/resource f4 [20]
-0.6094728 -0.42179772 -0.49919263 -0.63858366 -0.0120749185 -0.40593484 -0.75741756 -0.30817473
-0.8419459 -0.44372922 0.30595377 -0.93257904 0.018900262 -0.9739764 -0.3598777 0.16340667
-0.56744695 -0.33439386 0.03966657 -0.8741892
00000000: 6906 1cbf dff5 d7be 2d96 ffbe 387a 23bf
00000010: e1d5 45bc b1d6 cfbe 1ee6 41bf 14c9 9dbe
00000020: c489 57bf 7a30 e3be f9a5 9c3e 80bd 6ebf
00000030: b9d4 9a3c 8456 79bf e441 b8be 1454 273e
00000040: 3444 11bf ac35 abbe 6a79 223d ddca 5fbf

sequential/dense_1/BiasAdd/ReadVariableOp/resource f4 [10]
0.8498704 0.74500996 0.424675 0.38043106 -0.40068004 0.25455603 0.5149192 0.4794139
-0.17846832 0.61690253
00000000: 1b91 593f f9b8 3e3f 006f d93e dcc7 c23e
00000010: ef25 cdbe 2b55 823e bfd1 033f bd75 f53e
00000020: 66c0 36be 53ed 1d3f

sequential/dense_2/BiasAdd/ReadVariableOp/resource f4 [3]
0.2838657 0.07007409 -0.36645135
00000000: d856 913e 0183 8f3d 839f bbbe

sequential/dense/MatMul f4 [20, 42]
-0.18781811 0.2331248 0.08606297 0.13969491 0.17657891 0.06264848 0.23872986 0.031705555
0.19414517 0.06651864 -0.0597386 0.011094725 -0.011746732 0.034698468 -0.039118517 0.03897396
-0.019207874 0.035714123 -0.13553661 -0.018181048 0.028806446 0.041399267 0.008835392 -1.5343103
0.04554994 0.060953844 -0.035394054 0.06440536 0.019352514 0.07866869 -0.09642231 0.23441826
-0.14415848 0.16612183 -0.10328571 0.07963661 -0.051814523 0.08895919 -0.061153278 0.14879104
0.03960085 0.189953 0.12113944 -0.120073795 0.91500443 0.30810145 0.5003195 0.17241685
0.7275839 0.11522414 0.5154201 -0.0022304582 0.18042497 0.06758883 0.0034279628 0.11725458
0.04547044 0.03666051 -0.07616642 0.10649453 -0.14505832 0.09295333 0.06476459 -0.010794837
0.08405057 -0.003926526 0.07548608 -0.00076446997 -0.46122998 -0.030197114 -0.14409664 -0.043946266
0.022745943 0.009223027 -0.5514639 -0.9454919 -0.4071646 -0.21127462 -0.22410749 -0.027010873
-0.07873874 -0.5353288 -0.22847262 -0.3737423 -0.032887608 -0.095324636 0.21459821 0.21156102
0.3374735 0.10933513 0.21928076 0.016756227 0.1369364 0.07042806 -0.10545121 0.027893484
-0.040509447 -0.0047096843 -0.003164631 -0.0056608263 0.044201575 0.025288932 -0.066570505 0.007889543
0.05131877 0.05161685 0.06756059 -1.5373181 0.06230422 0.06866951 -0.10391042 0.0865094
-0.07493281 0.14752965 -0.10711465 0.20853037 -0.27541876 0.14324863 -0.09972583 0.09036215
0.0017193496 0.11649523 -0.07612733 0.15673003 -0.059959177 0.20082404 -0.05603087 -0.07227372
-0.6718536 0.15037785 -0.2569051 -0.07959113 -0.3054259 -0.12078561 -1.2257077 -0.1145562
-0.09586815 0.021810144 0.057599954 0.015246327 0.052666724 -0.00030210053 0.11658791 0.022339145
-0.12748554 0.067702726 0.24744526 -0.046342406 0.39321673 0.06448741 0.4672219 0.07514091
-0.12298072 0.011231439 0.3107608 -0.06736537 0.463501 -0.0086554475 0.642906 0.023526479
-0.0093250675 -0.025696518 0.20139673 -0.08235773 0.3266545 -0.29922438 0.41786137 -0.0852451
-0.07387613 0.01237911 0.19423118 -1.4550455 -0.008967216 -0.2654187 -0.63630015 -0.1370609
-0.7501878 -0.008433763 0.18364553 -0.01431658 0.27191266 -0.009805323 0.18979874 0.0053561153
0.20774473 -0.003913982 0.28500873 0.0047377683 0.018554617 0.06951451 -0.038122583 0.031044269
-0.056792773 0.08373242 0.074190356 -0.023679625 -0.10396683 0.08357343 -0.4003399 0.08181964
-1.0499759 -0.13140255 -0.07664676 0.07621499 0.06883156 0.06672984 -0.10112481 0.0144732585
0.06697314 -0.16564281 0.2588567 -0.1028724 1.1732498 0.2249739 0.7968518 0.14410181
0.70420843 0.08665628 0.48851404 0.04794323 0.112011105 0.09873681 -0.013636397 0.062896885
-0.05940588 0.077177644 -0.07040959 0.057740416 -0.15485549 0.06571111 -0.017984321 0.00567194
0.059653718 -0.013984318 0.09010838 -0.0068647144 -0.3919425 0.04356343 -0.1702995 -0.06915099
-0.23243694 -1.0403273 -0.32192448 0.010391141 -0.45286152 0.018956834 -0.040867876 -0.15513283
-0.04789219 -0.3071698 -0.035245415 -0.6918055 0.00990507 0.18923318 -0.2520221 -0.16349477
00000000: 6453 40be 44b8 6e3e c841 b03d 2f0c 0f3e
00000010: 1ad1 343e d94d 803d 9a75 743e afdd 013d
00000020: fecd 463e ed3a 883d 76b0 74bd a6c6 353c
00000030: 5d75 40bc fb1f 0e3d bd3a 20bd 29a3 1f3d
00000040: d559 9dbc f948 123d 1cca 0abe 6cf0 94bc
00000050: 7ffb eb3c 4792 293d 52c2 103c 4864 c4bf
00000060: 9392 3a3d bdaa 793d 5bf9 10bd f5e6 833d
00000070: 2a89 9e3c 0d1d a13d 0f79 c5bd 570b 703e
00000080: 489e 13be d71b 2a3e 7587 d3bd 8518 a33d
00000090: 773b 54bd 3c30 b63d dc7b 7abd ae5c 183e
000000a0: 8034 223d 0a83 423e f417 f83d 40e9 f5bd
000000b0: bb3d 6a3f 79bf 9d3e f014 003f 0b8e 303e
000000c0: f042 3a3f a2fa eb3d 92f2 033f e12c 12bb
000000d0: 53c1 383e 036c 8a3d aca7 603b 2b23 f03d
000000e0: 363f 3a3d 5529 163d 24fd 9bbd ce19 da3d
000000f0: 2b8a 14be 515e be3d 4ca3 843d d4dc 30bc
00000100: b522 ac3d 16aa 80bb 7298 9a3d b666 48ba
00000110: 5626 ecbe f05f f7bc 128e 13be 0001 34bd
00000120: b355 ba3c 2e1c 173c bd2c 0dbf c20b 72bf
00000130: e177 d0be 6058 58be 6f7c 65be e845 ddbc
00000140: c741 a1bd 4f0b 09bf baf4 69be 275b bfbe
00000150: 28b5 06bd 9039 c3bd a2bf 5b3e 74a3 583e
00000160: 54c9 ac3e 19eb df3d 238b 603e 5b44 893c
00000170: 0e39 0c3e 963c 903d cef6 d7bd e080 e43c
00000180: 3ced 25bd b253 9abb b365 4fbb 747e b9bb
00000190: b60c 353d bc2a cf3c 1e56 88bd 2443 013c
000001a0: a133 523d 316c 533d 355d 8a3d d7c6 c4bf
000001b0: b632 7f3d 9aa2 8c3d fcce d4bd d72b b13d
000001c0: 6076 99bd 0312 173e ed5e dbbd fc88 553e
000001d0: b003 8dbe c5af 123e 0e3d ccbd ca0f b93d
000001e0: cd5b e13a 0d95 ee3d a5e8 9bbd d67d 203e
000001f0: c197 75bd d1a4 4d3e a080 65bd 3e04 94bd
00000200: 99fe 2bbf a7fc 193e 1189 83be ad00 a3bd
00000210: c960 9cbe 725e f7bd fde3 9cbf 719c eabd
00000220: 8556 c4bd 30ab b23c eeed 6b3d bbcb 793c
00000230: 10b9 573d 3f63 9eb9 a4c5 ee3d 9500 b73c
00000240: 928b 02be baa7 8a3d 4a62 7d3e 89d1 3dbd
00000250: b453 c93e fa11 843d b537 ef3e 7ae3 993d
00000260: 51dd fbbd 1204 383c 0a1c 9f3e dbf6 89bd
00000270: 0150 ed3e 94cf 0dbc 7d95 243f 9aba c03c
00000280: 2bc8 18bc 8181 d2bc f23a 4e3e 2bab a8bd
00000290: 423f a73e f033 99be edf1 d53e fc94 aebd
000002a0: 5e4c 97bd c0d1 4a3c 8ae4 463e ee3e babf
000002b0: 3beb 12bc f6e4 87be 91e4 22bf b159 0cbe
000002c0: 4f0c 40bf c42d 0abc 930d 3c3e 1790 6abc
000002d0: 2338 8b3e 81a6 20bc 9a5a 423e 5a82 af3b
000002e0: 09bb 543e dc40 80bb aaec 913e 483f 9b3b
000002f0: daff 973c a05d 8e3d 6d26 1cbd 8d50 fe3c
00000300: 8a9f 68bd e77b ab3d 1df1 973d c6fb c1bc
00000310: 90ec d4bd 8c28 ab3d 5af9 ccbe 0e91 a73d
00000320: 9c65 86bf 648e 06be faf8 9cbd 9b16 9c3d
00000330: 90f7 8c3d a8a9 883d 861a cfbd 3f21 6d3c
00000340: 3729 893d 459e 29be de88 843e c4ae d2bd
00000350: 0d2d 963f 8f5f 663e 7bfe 4b3f 6d8f 133e
00000360: 0147 343f d978 b13d 831e fa3e 1f60 443d
00000370: 1466 e53d 8636 ca3d 326b 5fbc 15d0 803d
00000380: 9453 73bd 500f 9e3d e732 90bd 3781 6c3d
00000390: 7092 1ebe 8c93 863d db53 93bc aedb b93b
000003a0: 7557 743d 7b1e 65bc be8a b83d 66f1 e0bb
000003b0: b0ac c8be 916f 323d fe62 2ebe 099f 8dbd
000003c0: f303 6ebe 7229 85bf 49d3 a4be 9b3f 2a3c
000003d0: 77dd e7be 5d4b 9b3c 1365 27bd 24db 1ebe
000003e0: 9a2a 44bd 5c45 9dbe 7f5d 10bd 2a1a 31bf
000003f0: e048 223c 58c6 413e 0a09 81be 2c6b 27be

sequential/dense_1/MatMul f4 [10, 20]
-2.0034156 0.40148655 -1.9966328 -0.57052267 0.10607218 -0.22126652 0.45166337 -0.7097439
0.34708673 -0.50500935 0.76119137 -0.44540596 -0.035455897 0.18620756 0.5376166 0.34992927
-1.9909065 -1.7182153 0.50489706 -1.5935702 -0.029436762 -0.7874494 -0.36873943 -1.248797
0.107910305 -0.77393085 -0.5859164 0.0546427 -1.6425102 -1.4284298 0.039345726 -1.6385895
-0.08656158 -1.4643223 -0.13743682 0.097984634 -0.048356242 0.051515296 0.12441292 0.057710223
0.0760587 0.3827064 -0.09086784 -0.002264568 0.9347554 0.5596249 0.18145025 -0.9194044
0.2346545 0.41626698 0.23904686 0.45877898 -0.9117983 0.97722155 0.4920803 0.40934157
-1.1297666 -0.18210642 0.6199072 0.10963196 -0.8360867 -0.6373748 -0.7441501 0.40890735
0.35865167 0.32673997 -0.26650792 -0.2700724 0.68424094 -0.1049624 0.104744785 -0.21359526
0.020348707 0.7236359 0.44540408 0.59593546 0.9004418 -0.71360123 0.36318445 -0.31749853
0.25849038 0.3614176 0.27576402 0.36451122 -0.03122278 -1.4808458 1.0512328 0.11842033
-0.22507443 0.6517037 0.08914013 -1.8810462 -0.082538374 0.971408 -0.12160739 0.19965468
0.6701649 0.28495085 0.22931626 0.14345978 1.1430081 0.38938725 1.0383308 -0.61029685
0.0023145005 0.38629633 -0.9943903 0.25793943 1.7001736 0.4999285 0.08154502 -0.73009455
-0.06798794 1.175195 0.07963317 0.25738156 0.76070863 1.1629919 0.05950181 1.2881134
0.5610098 -1.485011 0.8457798 0.04041906 -0.6190233 -1.3766984 0.05973508 0.13148485
-0.2545265 -1.7755377 -0.19238958 -0.4820227 0.09140164 -1.3489166 -0.08055506 -0.82249725
-0.30095765 0.8063767 -0.3778744 0.37595797 1.3999215 -0.042815782 1.1428411 0.7139581
-0.040251788 0.35828754 -1.0630358 0.4358595 -0.43678564 -0.7282226 -0.45314407 -0.1203282
-0.21662654 0.06822745 0.07433788 -0.4526319 0.40961063 1.3489993 -0.64375067 0.6780752
0.2566823 -0.3051342 0.31653526 0.06302882 -0.048194014 0.23315956 0.7462 -0.3327377
0.5649512 0.52390873 -0.32355782 1.3376209 -0.19774897 0.1391442 0.2816248 -0.81465685
1.0185002 0.28323013 -0.36514598 0.68061477 -0.08886782 -0.5613153 -0.18623324 -1.148889
0.2349931 -0.5557954 -0.48386177 0.21717584 -0.7561799 -1.1707501 -0.13175578 -1.1327101
-0.17659572 -0.6318923 0.027085459 0.5403334 -0.095981784 -0.5082095 -0.10462814 0.007873474
00000000: f637 00c0 a58f cd3e aa91 ffbf c60d 12bf
00000010: 5f3c d93d b193 62be 6c40 e73e c7b1 35bf
00000020: 5ab5 b13e 4b48 01bf 70dd 423f 400c e4be
00000030: 343a 11bd 32ad 3e3e 3ea1 093f ee29 b33e
00000040: 06d6 febf 7bee dbbf ef40 013f 1cfa cbbf
00000050: 5d25 f1bc 4996 49bf 6acb bcbe 95d8 9fbf
00000060: 1400 dd3d 5520 46bf 9efe 15bf 06d1 5f3d
00000070: c63d d2bf cad6 b6bf fc28 213d 4dbd d1bf
00000080: 3347 b1bd ea6e bbbf 3dbc 0cbe 2bac c83d
00000090: 3211 46bd b401 533d 33cc fe3d 8e61 6c3d
000000a0: aac4 9b3d 18f2 c33e eb18 babd 2569 14bb
000000b0: 214c 6f3f 9443 0f3f 18ce 393e 165e 6bbf
000000c0: 4549 703e f220 d53e b3c8 743e 14e5 ea3e
000000d0: 9d6b 69bf 312b 7a3f f3f1 fb3e 3895 d13e
000000e0: 319c 90bf 1b7a 3abe 3db2 1e3f b986 e03d
000000f0: c709 56bf ff2a 23bf 9f80 3ebf 4e5c d13e
00000100: 31a1 b73e 764a a73e ba73 88be ee46 8abe
00000110: 6a2a 2f3f 87f6 d6bd 6f84 d63d b7b8 5abe
00000120: 55b2 a63c 3440 393f 010c e43e 3a8f 183f
00000130: 5b83 663f 92ae 36bf 50f3 b93e 2b8f a2be
00000140: da58 843e ba0b b93e f130 8d3e 37a1 ba3e
00000150: eac6 ffbc 5b8c bdbf cc8e 863f 5c86 f23d
00000160: e979 66be 0ed6 263f 1a8f b63d 1fc6 f0bf
00000170: e109 a9bd 32ae 783f 4c0d f9bd 4772 4c3e
00000180: ed8f 2b3f 14e5 913e e2d1 6a3e 1fe7 123e
00000190: 174e 923f c45d c73e 06e8 843f 6a3c 1cbf
000001a0: e0ae 173b a2c8 c53e 5d90 7ebf a310 843e
000001b0: 4a9f d93f a1f6 ff3e 1301 a73d 7ae7 3abf
000001c0: 433d 8bbd ca6c 963f b716 a33d 84c7 833e
000001d0: cdbd 423f ebdc 943f 2cb8 733d e6e0 a43f
000001e0: 579e 0f3f d714 bebf 0685 583f 758e 253d
000001f0: 5078 1ebf a737 b0bf c5ac 743d f7a3 063e
00000200: 4c51 82be d244 e3bf c601 45be aecb f6be
00000210: c830 bb3d 4da9 acbf 0dfa a4bd 2e8f 52bf
00000220: 1f17 9abe b46e 4e3f c178 c1be 907d c03e
00000230: a130 b33f 9a5f 2fbd 9e48 923f f5c5 363f
00000240: 0fdf 24bd 7771 b73e 8f11 88bf fa28 df3e
00000250: 5ea2 dfbe cc6c 3abf 8002 e8be a26e f6bd
00000260: 59d3 5dbe d5ba 8b3d 753e 983d 5ebf e7be
00000270: 7cb8 d13e 02ac ac3f d8cc 24bf 5696 2d3f
00000280: dd6b 833e 8d3a 9cbe e910 a23e 4115 813d
00000290: 1667 45bd 61c1 6e3e f706 3f3f 995c aabe
000002a0: a4a0 103f e21e 063f 5fa9 a5be 2937 ab3f
000002b0: b57e 4abe d17b 0e3e 2031 903e 5a8d 50bf
000002c0: 375e 823f 8a03 913e 6af4 babe c53c 2e3f
000002d0: 5500 b6bd 5cb2 0fbf edb3 3ebe cb0e 93bf
000002e0: 08a2 703e 9b48 0ebf bbbc f7be 5863 5e3e
000002f0: 0295 41bf 24db 95bf fdea 06be a5fc 90bf
00000300: 82d5 34be b2c3 21bf 53e2 dd3c 4a53 0a3f
00000310: 1992 c4bd 051a 02bf 4747 d6bd beff 003c

sequential/dense_2/MatMul f4 [3, 10]
1.4099278 0.6174683 0.32536346 0.28275445 -1.2137766 -1.9566766 -0.41714445 -2.4838753
-1.3235332 0.98793 -1.6411897 1.2247739 -1.1205213 -1.261673 0.011010274 0.61600834
1.156454 0.90013534 0.44163528 0.6075337 0.11201025 -1.5715237 0.8598704 0.36947402
1.4754797 1.243441 -0.9738525 0.21688558 0.9338094 -0.6474922
00000000: 8478 b43f 6712 1e3f 0a96 a63e 31c5 903e
00000010: 085d 9bbf 6174 fabf f593 d5be d0f7 1ec0
00000020: 8969 a9bf fbe8 7c3f 8112 d2bf 64c5 9c3f
00000030: 3e6d 8fbf 807e a1bf 7064 343c b9b2 1d3f
00000040: af06 943f 456f 663f 051e e23e 5487 1b3f
00000050: a165 e53d b027 c9bf 7720 5c3f b32b bd3e
00000060: 85dc bc3f 1329 9f3f 664e 79bf 4117 5e3e
00000070: 220e 6f3f 0cc2 25bf
