Youtube_0531-main/model/point_history_classifier/壞掉的 我要放原版/point_history_classifier.tflite (tflite, 6336 bytes, 6 tensors)

sequential_1/dense_3/BiasAdd/ReadVariableOp/resource f4 [24]
000000 1d 16 c1 3d 43 33 6c 3c 63 83 b7 bc cf ab 82 bc
       0.09428046 0.014416519 -0.022401517 -0.015951065
000010 19 89 08 be 79 27 f4 bd f0 c5 a9 bc 54 0e 1e be
       -0.13333549 -0.11921591 -0.020724267 -0.15435153
000020 0a ec b8 be 89 7b 23 bc 33 4b 23 be 4e e2 27 bd
       -0.36117584 -0.009978184 -0.15946655 -0.040987305
000030 68 f5 b2 bd e5 d2 10 bd 66 c9 05 be 32 c2 94 bd
       -0.08738214 -0.035357375 -0.13065109 -0.07263602
000040 17 4f a0 3d 7f dc 8f bd f4 cb 86 be 93 c0 bb bc
       0.07827585 -0.07024478 -0.2632748 -0.022918975
000050 dc 0f 44 bc 29 5a 28 bd a0 08 6b bd a9 df 74 bd
       -0.011966672 -0.04110161 -0.057381272 -0.05978361

sequential_1/dense_4/BiasAdd/ReadVariableOp/resource f4 [10]
000000 7a a9 b0 3c 3a 4d a7 3e 1b 2b 13 be 57 16 65 3d
       0.021565188 0.32676107 -0.14371912 0.055929508
000010 cd 90 62 bc ad 80 ad 3d d0 d9 61 3f e2 ec 15 bc
       -0.0138284685 0.084718086 0.8822298 -0.009150716
000020 e7 f0 db bd a6 15 c6 3f
       -0.10739308 1.5475357

sequential_1/dense_5/BiasAdd/ReadVariableOp/resource f4 [5]
000000 41 95 98 3f e9 ce ec be df 3c 2c 3e 6b 85 4c bf
       1.1920549 -0.4625161 0.16820095 -0.7989108
000010 3c 0f 01 bf
       -0.5041387

sequential_1/dense_3/MatMul f4 [24, 32]
000000 58 65 00 be 26 f7 5e be 76 a4 b1 3e 10 76 90 bf
       -0.1253866 -0.21773967 0.34695786 -1.128603
000010 1b 18 8b 3c dd 1f 68 bf 9b 1a 8d be c2 36 94 bf
       0.016979268 -0.9067362 -0.2755936 -1.1579211
000020 4d 2c 0f be 8f 53 91 bf 1c 73 25 bf 2a 06 6d bf
       -0.13981743 -1.1353625 -0.6462877 -0.9258753
000030 54 de 04 bf 4a bf 8b bf c4 e4 00 bf 24 a9 0f bf
       -0.51901746 -1.0917752 -0.5034907 -0.56117463
000040 8a a3 3a bc 0b 19 03 bf e8 f3 b4 3e 70 f0 13 3e
       -0.01139153 -0.5121009 0.35342336 0.14447188
000050 34 83 02 3f a7 ab fe 3c 4d 23 8a 3e 5b 7f 23 bf
       0.5098145 0.03108771 0.26980057 -0.63866204
000060 d0 8f d2 3e 74 8c 1b bf 55 68 63 3f e6 d9 5b 3e
       0.41125345 -0.6076119 0.88831073 0.2146984
000070 d3 3b 84 3f 2d 32 0b 3f 43 75 86 3f f3 b9 22 be
       1.0330757 0.5437344 1.0504535 -0.15891246
000080 94 f3 94 3d ce 21 8e 3e e8 5e 73 3f 2b db ba 3e
       0.07273021 0.27760166 0.9506669 0.36495337
000090 2a 82 67 3f cb 9b 96 bf 2e 59 ad 3f 20 02 17 3d
       0.9043299 -1.1766294 1.354284 0.03686726
0000a0 56 cc 98 3f a9 7e 0a bf 4e a0 54 3f d5 6b 04 bf
       1.1937358 -0.5409952 0.83057106 -0.5172704
0000b0 b2 30 e7 3e b3 b7 53 be 82 70 9b 3e 7b 64 f7 be
       0.4515434 -0.20675544 0.30359274 -0.48318848
0000c0 4e be a5 3d 12 c4 14 bf 55 7f de be 6c c0 bf 3d
       0.08092938 -0.5811168 -0.43456522 0.093628734
0000d0 78 8e 44 bf 5b ff 1e bf c0 30 75 bf 3e 1d ac 3e
       -0.7677989 -0.6210839 -0.9577751 0.3361606
0000e0 e4 37 98 bf eb c7 51 3e 90 43 a6 bf a5 a5 95 3d
       -1.1892056 0.20486419 -1.2989368 0.07306985
0000f0 fd 7d b3 bf 8b db f1 3e ae ed 70 bf c3 73 6c 3f
       -1.4022824 0.4723781 -0.9411267 0.9236414
000100 00 9c 95 3a a2 f1 8d 3e 07 ea f2 3f 9f a7 a0 3f
       0.001141429 0.27723414 1.897767 1.2551154
000110 1e 4c 92 3f 7a 3c 8e 3f 33 c7 48 3f 3f 1d 84 3f
       1.1429479 1.1112206 0.78428954 1.0321425
000120 9a 75 26 3f 80 ba 16 3f 86 40 a2 3e 2c aa bd 3e
       0.65023196 0.58878326 0.31689852 0.37043893
000130 f6 9b 80 be 83 48 c4 3e 30 38 f5 be 28 72 04 3f
       -0.2511899 0.38336572 -0.4789443 0.5173669
000140 84 3b fd be e8 c6 ba 3e e7 5a 01 bf 73 d0 e0 3e
       -0.4945947 0.36479878 -0.5052933 0.43909034
000150 ab ba 95 bf e8 61 27 be ed b6 38 bf 2c 01 fd bd
       -1.1697592 -0.16345942 -0.7215412 -0.12353739
000160 c2 8d 85 bf 9f 28 d6 be 73 eb 28 bf d8 7a 23 bf
       -1.0433886 -0.41827866 -0.65984267 -0.6385932
000170 62 44 02 be 6c 4b 18 bf 29 60 82 be 3c 8e 20 bf
       -0.12721398 -0.59490085 -0.2546399 -0.6271703
000180 90 23 09 3e aa 3e 3b be d3 97 2a bf 23 26 25 bf
       0.13392472 -0.18285623 -0.66637915 -0.64511317
000190 49 64 57 bf 5c e5 9f bf 62 51 9f bf 3d f4 43 bf
       -0.841374 -1.249187 -1.2446711 -0.76544553
0001a0 93 eb 4d bf 2a c8 71 bf cf 44 55 bf 36 8f 82 bf
       -0.8043758 -0.9444605 -0.8330812 -1.0199955
0001b0 df 90 fe be c6 78 91 bf 49 58 ae be 41 11 9d bf
       -0.49719903 -1.1364982 -0.3405173 -1.227089
0001c0 c1 1a 7a 3e 08 1e 91 bf 6f 52 27 3f 6c a2 f9 be
       0.24424268 -1.133729 0.6536016 -0.4875673
0001d0 b1 52 10 3f e0 d0 0d bf bd 66 53 3f 60 99 08 bf
       0.5637618 -0.5539684 0.8257864 -0.5335903
0001e0 24 2d 6f 3f 6b 11 e5 bd fc 9f 77 3f b1 bd 05 3f
       0.93428254 -0.11184963 0.9672849 0.5224257
0001f0 97 e4 58 3f 34 8b 01 3f c5 60 15 3f 06 2a 0e 3f
       0.847238 0.5060303 0.58350784 0.5553287
000200 39 fb 35 be b6 f8 72 be 4b 4f 89 3f 59 9f 44 be
       -0.17771615 -0.23727688 1.0727323 -0.19201411
000210 b8 fe 86 3f 93 dd 9c bf 23 d8 70 3f b3 27 8b bf
       1.0546484 -1.2255119 0.940798 -1.087149
000220 e2 7b 80 3e ef aa 81 bf 63 69 56 be 4b 17 67 bf
       0.25094515 -1.013029 -0.2093864 -0.9026992
000230 6f 09 c2 be b5 ee e1 be 8c 69 54 bf f2 7b 90 be
       -0.37897822 -0.44127432 -0.8297355 -0.28219563
000240 28 32 5b bf 22 44 1e 3c 8a d7 56 bf c2 39 46 3e
       -0.8562341 0.009659799 -0.83922637 0.1935797
000250 88 bf 0b bf e0 bf 46 3e 28 e5 17 bf be f3 d3 3e
       -0.5458913 0.19409132 -0.5933404 0.41396898
000260 2c e6 bc be 40 a0 96 3e 6e b9 8a bd 4e 41 37 3e
       -0.36894357 0.29419136 -0.06773649 0.17896006
000270 00 96 b7 be d1 bf 77 3e 83 9c 72 be 8d 66 94 bd
       -0.35856628 0.24194266 -0.23692517 -0.072461225
000280 25 c3 58 be f0 9b 92 be ac 71 28 40 35 37 1a 3f
       -0.21168192 -0.28634596 2.631938 0.6024049
000290 63 41 15 40 56 cb b6 3e 27 8b fa 3f 06 35 6d bc
       2.332116 0.35702008 1.9573716 -0.014477974
0002a0 8c 69 96 3f 45 bc 19 be fa c4 5b 3f 5f 57 c8 be
       1.175096 -0.15013225 0.8584744 -0.3912916
0002b0 3b 5c bb 3e cb 74 13 bf 3e 45 06 be d0 22 10 bf
       0.36593804 -0.57600087 -0.13112351 -0.5630312
0002c0 05 af 9e be 37 92 fd be af b6 31 bf 93 33 16 bf
       -0.30992904 -0.49525616 -0.6941938 -0.58672446
0002d0 ab 63 06 bf a5 cf 54 be 06 fe 79 be 58 a5 8e 3e
       -0.5249583 -0.20782335 -0.24413309 0.27860522
0002e0 f0 42 c3 bd 02 23 18 3f fa 8c 8b bd 94 aa ed bd
       -0.09534252 0.5942842 -0.068139985 -0.11604801
0002f0 47 46 fa bc fd 66 29 bf e8 71 ed 3d 09 ea bf be
       -0.030551089 -0.6617277 0.115939915 -0.37483242
000300 7f 26 80 be 10 c8 37 3e 18 14 05 3f f8 de 75 3e
       -0.2502937 0.17947412 0.51983786 0.24010837
000310 e4 2e b3 be 33 60 10 c0 c9 f5 c2 be b2 40 08 bf
       -0.34996712 -2.2558715 -0.38078144 -0.5322372
000320 4e 77 a8 be 78 fb db be 1e 6b f1 3d 62 f1 3a bf
       -0.32903522 -0.42965293 0.11788009 -0.7302457
000330 ec 43 6e bd 1a 4f 1d bf f6 49 71 3e b2 e8 d1 be
       -0.058170244 -0.61448824 0.2356337 -0.40997845
000340 a5 82 61 be d4 19 49 bc cc af 46 be b9 5f 48 3e
       -0.22022493 -0.012274224 -0.19402999 0.19567765
000350 6d 2c ea be 00 6e 81 bf bc 31 37 bf 36 f4 e3 3e
       -0.4573702 -1.0111694 -0.71560264 0.44522256
000360 7b 4d 19 bf 3d b5 35 3f 23 9e 65 bf 99 61 24 3f
       -0.5988385 0.7097967 -0.8969442 0.6421142
000370 87 85 87 bf db 67 7b 3f 9a 59 43 bf 49 ff 7a 3f
       -1.0587624 0.98205346 -0.76308596 0.98045784
000380 d0 1e 5f 3e a8 7e 3b 3e d0 7c a0 3f 4a 56 94 3f
       0.21789098 0.18310034 1.253809 1.1588833
000390 10 35 d8 3f 8f bb dc 3f c1 27 ae 3f b2 e7 9c 3f
       1.6891193 1.7244738 1.3605882 1.2258208
0003a0 2b 64 7e 3f bd 52 1a 3f 88 b5 74 3f 6b c6 90 3e
       0.99371594 0.602825 0.95589495 0.2827638
0003b0 b3 18 58 3f dc c9 c6 3d 54 cb 21 3f 7c c3 84 be
       0.8441269 0.0970647 0.6320088 -0.25930393
0003c0 a8 dc 8d 3e 2b 82 b9 be 27 c4 cc bc b6 01 05 bf
       0.2770741 -0.36232123 -0.024995876 -0.51955736
0003d0 e5 0e 25 3b 13 5b b9 be 52 f9 47 be 39 a9 d1 be
       0.002518588 -0.36202297 -0.19528702 -0.4094942
0003e0 e8 32 84 3d ab 98 9c be f3 eb 88 3d 63 07 70 be
       0.06455022 -0.30585226 0.06685629 -0.23440318
0003f0 22 39 cc 3e a1 3e d6 bd ae 7c 21 3f e4 f0 15 bf
       0.3988734 -0.10461164 0.6308087 -0.58570695

sequential_1/dense_4/MatMul f4 [10, 24]
000000 e8 33 d7 3e 44 b0 56 3e bf 62 7f 3e e3 6c 90 3f
       0.4203179 0.20965677 0.24940012 1.128323
000010 2d 19 c2 3e fd 72 aa 3f 5c d7 80 3e 06 9c 27 3f
       0.37909833 1.3316342 0.25164306 0.6547245
000020 a7 1a 82 bf 27 63 8f 3e cb b9 55 3e e2 3a e2 3e
       -1.0164384 0.28005335 0.20871656 0.4418555
000030 c0 fd fb 3e 81 9e 6b 3f fa 10 d4 3e 5d 1c ac 3f
       0.49217033 0.9203873 0.41419202 1.3446156
000040 01 66 17 be e1 42 0f 3f d3 cb 96 3e 49 e4 e0 3e
       -0.14785005 0.55961424 0.2945238 0.43924168
000050 5b 63 98 3f 2f 50 56 bf 52 d6 6d be ca ae d1 3f
       1.1905321 -0.837161 -0.23226288 1.6381466
000060 3a 07 01 c0 e7 b3 68 3f a2 dd 4d 3f 25 7b d9 bf
       -2.016066 0.9089951 0.8041631 -1.6990706
000070 7a 1c 4f 3f 0f 26 b3 be 5e c8 1a 3f e5 45 f9 be
       0.80902827 -0.34989974 0.60461986 -0.48686138
000080 84 53 39 bf 70 11 85 3f d1 ba 09 3f 71 75 2d 3f
       -0.7239306 1.0395947 0.53800684 0.67757326
000090 82 c0 f9 3e 32 79 b3 bf df ee fb be 29 d6 ba 3e
       0.48779684 -1.4021361 -0.49205682 0.36491516
0000a0 2b 2a 0c 3e d0 53 d2 3e 29 ee 59 3e 49 d2 33 3d
       0.13687961 0.4107957 0.21282257 0.043901715
0000b0 34 68 00 c0 f1 bd 7f 3d 5e c4 04 bd 11 59 0e 3f
       -2.00636 0.062437 -0.032413833 0.55604655
0000c0 94 3b a1 3e 23 64 37 bf c8 f9 a6 be 00 6d ee 3d
       0.31490767 -0.7163717 -0.32612443 0.11641884
0000d0 b7 b2 b7 3f 80 47 77 3e 08 6e 5a bf 0f fa 87 3f
       1.4351414 0.24148369 -0.85324144 1.0623187
0000e0 b5 f2 ac 3f 9c 4a 4a be 02 1a d0 3f c1 3f 70 3e
       1.3511568 -0.19755024 1.6257937 0.2346182
0000f0 bb 77 a6 bf 15 d9 1c 3f d9 8d b2 3f ba 4f 47 3e
       -1.3005289 0.6126874 1.3949538 0.19464007
000100 9b 91 83 3f 9a 33 1a bf 2a 50 96 3e b3 79 7e 3f
       1.027881 -0.6023499 0.29358035 0.9940445
000110 8e 0d 83 bd 8a 75 8d 3e e1 cc 13 3f 00 e7 28 3f
       -0.0639907 0.27628738 0.57734495 0.6597748
000120 80 89 b9 3d 16 ba 39 3f 97 6a 11 3f 7d af 92 3d
       0.09059429 0.7254957 0.5680327 0.07162378
000130 80 dc 06 3f 9a 31 68 3f 4d d9 46 3f e4 3d a1 3f
       0.52680206 0.90700686 0.77675325 1.2597013
000140 d6 be 16 3f ed 58 32 3f 3b 96 4f 3f bb 7d 20 bf
       0.5888494 0.6966694 0.8108861 -0.6269185
000150 1d e6 ea 3e 07 ee 36 be 91 9f be be 9e 71 05 be
       0.45878688 -0.17864238 -0.37231115 -0.13031623
000160 99 5b 08 c0 8b fb 08 3f 26 b3 10 bf b7 ae 1d c0
       -2.1305907 0.53508824 -0.5652336 -2.4637887
000170 51 c9 26 3e a7 dc 96 bf 4c 33 c7 be af b3 74 bf
       0.16287734 -1.1786088 -0.38906324 -0.95586675
000180 2f 8f 02 3e 14 d9 35 3e 35 8a 26 3f be be d4 3e
       0.12749933 0.1775859 0.6505464 0.41551775
000190 7d b4 95 3f 7f c9 8f 3f ab 78 62 3f 57 3e 96 3f
       1.1695706 1.1233367 0.88465375 1.1737775
0001a0 47 71 ac 3f a5 8b 35 3f 96 1a 8e 3f e2 e5 7a 3f
       1.347207 0.70916206 1.1101863 0.98007023
0001b0 93 b4 82 3f 2b 4b 05 3f ac 96 9b 3f 02 ca df 3e
       1.0211357 0.5206782 1.2155356 0.43708807
0001c0 68 1d a7 3d 2d ef 5b 3f 0b 8b 33 3f 71 d9 88 3f
       0.08159906 0.8591183 0.7013404 1.0691358
0001d0 62 f0 cf 3e 51 0e 0b 3f ff ac c5 3f f2 0c 0f 3e
       0.40613085 0.5431872 1.5443419 0.13969782
0001e0 dd 9c 2b bf 23 db e5 3e 80 f8 28 40 35 f6 31 bf
       -0.6703623 0.4489375 2.6401672 -0.6951631
0001f0 f7 b9 db 3e 41 d3 0f bf e6 79 c5 3f ef 5f 0b bd
       0.42915317 -0.5618172 1.5427825 -0.034027036
000200 23 05 2d bf ca f4 3f 40 e1 17 82 3f bc b3 ae 3e
       -0.67585963 2.9993157 1.0163537 0.341215
000210 0e db c7 3f 99 52 03 be 22 dd b7 3e cb fe 23 bf
       1.5613725 -0.12824477 0.35910898 -0.6406066
000220 b9 1c d8 3e 8d b0 4f 3f 2b 68 1d 3e ae 43 21 3f
       0.42209414 0.8112877 0.15371768 0.62993896
000230 2a ad cc be 84 e4 25 3f ef a3 06 3f e7 3f d6 3f
       -0.39975864 0.6480181 0.5259389 1.6738251
000240 77 fc 36 3f 6b 69 00 3e 47 dd 84 bd 97 d4 85 3d
       0.7147898 0.12540214 -0.06487518 0.06534689
000250 ab 67 c4 bf 2a 10 57 bf 23 ce 4f be 3c 82 66 be
       -1.5344137 -0.8400904 -0.20293479 -0.22510618
000260 ee 34 42 3f ca 40 03 be 62 9d ce bf 32 70 d5 3e
       0.75862014 -0.12817684 -1.614178 0.4168716
000270 ee fd e4 3b b3 1e a3 bc a6 15 0c bf da ba 05 3f
       0.0069882786 -0.0199121 -0.5472053 0.5223824
000280 8c f3 48 3f fe 06 0a 3c 73 f4 83 3f b1 18 20 be
       0.78496623 0.008424519 1.0308975 -0.15634419
000290 9a 02 fa 3e 72 76 cc 3e d8 33 64 be ce 14 1d bf
       0.4883011 0.39934117 -0.22285402 -0.6135987
0002a0 82 00 82 3e c6 aa 57 3e ae 4c 8d 3f 02 0c 3c 3f
       0.25391012 0.21061239 1.1039026 0.7345582
0002b0 94 e9 20 bf 10 f3 cb bd f9 29 b8 3e cf 50 ea be
       -0.6285641 -0.0995847 0.35969523 -0.45764777
0002c0 0e 93 c4 be c3 ac 89 3f 81 20 05 bf 6c 31 89 3f
       -0.38393444 1.0755848 -0.5200272 1.0718207
0002d0 40 51 16 3f ba 28 74 3f 0f 6c dc bd c6 6c 2f 3f
       0.5871773 0.95374644 -0.10762798 0.6852535
0002e0 af 02 8b bd e0 aa 46 3f 6c 23 b3 3f ef 4a 09 3f
       -0.06787621 0.77604485 1.3995185 0.53629965
0002f0 5f 9f 4c 3f cc f8 08 3f 62 a9 f6 3d 79 eb 3f 3f
       0.7993068 0.53504634 0.12044026 0.7496868
000300 89 e4 13 3f 87 ce 8b 3e de 60 99 3e c5 81 a2 3f
       0.5777059 0.27306005 0.29956716 1.2695853
000310 c9 cb df 3e bc 35 e3 3f 17 24 7b 3e 9b 86 0d 40
       0.43710163 1.7750773 0.24525486 2.2113407
000320 a0 f8 e1 3e 96 dc 06 3f ef 91 f6 3e 71 50 b5 3f
       0.44134998 0.5268034 0.48158213 1.4165174
000330 ed 07 24 3e 9e d7 97 3f 22 38 20 40 5f d5 8f 3f
       0.16018648 1.1862676 2.503426 1.1236991
000340 23 06 25 3f 96 c8 99 3d f5 b9 4c 3f db f5 00 40
       0.6446249 0.07508962 0.7997125 2.0150058
000350 f4 08 de 3f 88 66 94 3f 64 d7 0a 40 1c e5 aa 3f
       1.7346482 1.159379 2.1693964 1.3351169
000360 4c 65 f5 3e 0b 76 b6 3f cd 6e d4 3e e6 97 93 be
       0.47928846 1.4254774 0.41490784 -0.28826827
000370 c4 d2 3a 3e 14 2d 71 3e dc 0a 62 3f d8 b3 0e bd
       0.18244463 0.23552352 0.8829782 -0.03483948
000380 21 d9 96 bf eb bf d7 bd 7e e9 91 bb b5 4c bf 3c
       -1.1785012 -0.10534652 -0.0044528833 0.023352006
000390 3f ab 7e 3e 46 9a dd 3d 12 1b 25 be 35 d7 0e bf
       0.24870013 0.10820441 -0.16123608 -0.5579713
0003a0 02 e0 e4 3e 75 91 b1 3d 72 7e fb bb 44 c9 46 be
       0.44702154 0.08670322 -0.0076749856 -0.19412714
0003b0 f4 b4 3f be d8 0a 31 3e 50 7c c0 3e de 26 1d 3d
       -0.18721372 0.17289293 0.37594843 0.038367145

sequential_1/dense_5/MatMul f4 [5, 10]
000000 49 33 6f c0 5c 96 0a c0 b5 b3 1d c0 7c bf eb bf
       -3.7375052 -2.1654272 -2.4640934 -1.8417811
000010 ba e8 8c c0 51 d4 d7 bf a5 4e cb 3f 02 46 90 c0
       -4.403409 -1.6861669 1.5883375 -4.508546
000020 8c 3b 6f c0 fb ae af 3f 9c 4f 89 3f 7e 91 1c 3f
       -3.7380095 1.3725275 1.072742 0.61159503
000030 f2 5e 8c bf be be ff bf b3 ca b9 be 7a e4 6f 3f
       -1.0966475 -1.9980085 -0.3628746 0.93708
000040 dc 96 c7 3e b9 f1 a9 3f dc cb bb 3e d9 57 8c be
       0.38982284 1.3276893 0.3667897 -0.27410772
000050 43 3d 49 3f 10 25 3d bf 64 88 c6 3e 09 a4 90 3e
       0.786091 -0.7388468 0.38775933 0.2825015
000060 13 5e 4f 3e 51 af 6a 3f fe 2f af bf 53 ee 0f bf
       0.2025073 0.9167376 -1.3686521 -0.5622303
000070 89 c1 77 3f da e9 da 3e 60 ee 89 be 5b 8c 8e be
       0.96779686 0.4275654 -0.26939678 -0.27841458
000080 b2 d1 94 3f d6 e3 83 bd cc 81 4d 3f fc 1d d4 bf
       1.1626494 -0.06439941 0.8027618 -1.657165
000090 23 b9 e9 3e c7 04 b6 3e d8 52 7a 3f d1 21 ca bf
       0.4564906 0.3555052 0.9778266 -1.579157
0000a0 ee fd 98 bf 71 93 b2 3f 02 e7 16 3f 48 86 98 3f
       -1.1952493 1.3951246 0.5894624 1.1915979
0000b0 8f 3a fd 3e 07 a3 59 3f 12 dd ae bf 0f 9d e6 3d
       0.4945874 0.85014385 -1.3661215 0.11260425
0000c0 ba 77 e4 bf e9 8b ad be
       -1.7849038 -0.33895805
