Youtube_0531-main/model/keypoint_classifier/keypoint_classifier_L.tflite (tflite, 6656 bytes, 6 tensors)

sequential_3/dense_10/BiasAdd/ReadVariableOp/resource f4 [10]
0.52321506 0.39077768 0.72251433 1.1826844 0.43429238 0.19891219 0.6710873 -0.21380784
-0.21844989 -0.058173433
00000000: 6cf1 053f 0314 c83e b3f6 383f 3462 973f
00000010: 925b de3e a3af 4b3e 61cc 2b3f 71f0 5abe
00000020: 54b1 5fbe 4447 6ebd

sequential_3/dense_11/BiasAdd/ReadVariableOp/resource f4 [10]
0.16390996 0.51331085 0.40109015 -0.43467513 -0.41124 0.3000408 -0.67274326 -0.25770134
-0.49219632 0.3933829
00000000: 03d8 273e 5768 033f b05b cd3e bd8d debe
00000010: 0d8e d2be f39e 993e e738 2cbf 6ef1 83be
00000020: 2801 fcbe 7c69 c93e

sequential_3/dense_9/BiasAdd/ReadVariableOp/resource f4 [20]
-0.047086056 -0.39102504 0.46399304 -0.1380709 0.8640863 -0.76554084 0.29844052 -0.4618822
-0.8485955 0.49269524 -0.15916884 0.14935538 -0.5938825 -0.8876794 0.43193147 -1.0401993
-0.40152088 -0.03676304 0.2933638 -0.7209717
00000000: 4fdd 40bd 6f34 c8be 7f90 ed3e 7562 0dbe
00000010: c234 5d3f 7cfa 43bf 32cd 983e d37b ecbe
00000020: 8e3d 59bf 8d42 fc3e 28fd 22be 9ef0 183e
00000030: af08 18bf f53e 63bf 1f26 dd3e 4025 85bf
00000040: 2594 cdbe d794 16bd c833 963e 9a91 38bf

sequential_3/dense_10/MatMul f4 [10, 20]
0.532811 -0.11022553 0.033101503 0.8528126 1.2264838 0.33315587 0.5470812 -0.42834514
-0.17885613 0.17657277 0.6172561 -0.5306785 0.13460332 0.36319327 0.2975626 0.014744628
0.5307784 0.71310544 0.78052753 0.2904588 0.08551872 1.0122501 -0.65262675 -0.15090385
-0.46021578 0.06556807 -0.6263178 0.32940096 1.011629 -0.23722474 0.9517212 0.41240445
0.52283865 1.0610688 0.6897197 0.1520434 0.18221849 -0.006675606 -0.4435615 0.9939394
0.31466925 -0.16706842 -0.11632034 0.8205782 0.23906772 -0.005085197 -0.80757606 -0.14768495
0.5925455 -0.42540383 -0.30698276 -0.7375486 0.881047 0.3895861 -0.6697354 0.308924
0.8642962 0.40145347 -0.8475674 0.625807 0.68943053 -2.161841 0.22083312 0.5310016
0.56498057 0.2647311 -0.05835195 -0.5452037 -0.16648042 0.39176425 -0.5978881 0.25325823
0.31988773 -0.04622755 -0.37477112 0.18963248 -0.06988545 -0.15607423 -0.81499743 -0.9553638
-0.009410739 -0.07493825 1.1828434 -0.13284077 0.29010358 -0.6292544 0.3590289 -1.1312329
0.32074964 -0.70822155 0.09939785 0.48073894 0.1002148 -0.17880642 0.3498333 -0.47581226
0.6153674 0.8355314 0.1372106 -0.043639697 1.0716099 -0.07159336 0.79700994 0.7476673
-0.16791384 0.4103954 0.64594823 0.7469435 0.07277546 0.79180557 0.07537451 0.6150161
-0.12591888 0.084305935 -0.09665792 0.47901595 0.030928534 0.067521304 0.07424998 -0.13400517
-0.6314734 0.49141937 -0.33466864 -0.3907017 0.21245588 0.8141876 0.3181546 0.55551267
0.22862443 -0.09982538 -0.41887861 0.8867952 0.22956581 0.2531507 0.21800123 0.43042383
-0.55750495 -1.1270136 0.43845084 -0.831102 0.15075906 1.1083497 -0.02306881 0.415468
-0.08709457 -0.23220065 0.0004424625 0.33290106 0.302248 0.04914695 0.58265746 0.44111675
0.28811878 0.3738679 0.20660174 0.074656874 0.6124799 1.0607107 -0.026004467 0.63264513
0.1542575 -0.35701293 0.48808798 0.6055818 0.83130115 0.094449066 0.86402357 0.785238
0.16382815 0.60491776 0.5097228 0.22688004 0.0003834722 0.023304606 0.79690415 0.051675316
-0.23146912 -0.193196 0.7037747 0.09921086 0.07594618 -0.2962855 0.6004823 -0.08141028
-0.43516427 1.1413387 0.09918661 0.0517333 0.26401177 0.68456125 0.64390594 0.11335555
0.2277194 0.084786214 0.30813035 0.42179993 0.408755 0.13325922 0.04551872 1.0304888
00000000: 4d66 083f ecbd e1bd 7195 073d ed51 5a3f
00000010: 6cfd 9c3f 6893 aa3e 830d 0c3f 0e50 dbbe
00000020: 1026 37be 7ecf 343e 7f04 1e3f 8cda 07bf
00000030: 74d5 093e 78f4 b93e 205a 983e 7493 713c
00000040: 18e1 073f 148e 363f a7d0 473f 04b7 943e
00000050: 7024 af3d 6991 813f 8c12 27bf 8a86 1abe
00000060: 67a1 ebbe 8d48 863d 5d56 20bf 3ea7 a83e
00000070: 0f7d 813f 0beb 72be 00a4 733f ad26 d33e
00000080: c1d8 053f 1ad1 873f 7891 303f 44b1 1b3e
00000090: 7c97 3a3e 0bbf dabb 7e1a e3be d072 7e3f
000000a0: 541c a13e fc13 2bbe 5c39 eebd 6a11 523f
000000b0: 2bce 743e b9a1 a6bb 4ebd 4ebf b93a 17be
000000c0: 10b1 173f 88ce d9be d82c 9dbe fccf 3cbf
000000d0: 4c8c 613f d477 c73e c773 2bbf 492b 9e3e
000000e0: 8442 5d3f 4f8b cd3e 2dfa 58bf e334 203f
000000f0: 857e 303f 9a5b 0ac0 1422 623e b9ef 073f
00000100: 91a2 103f d68a 873e 7402 6fbd 7892 0bbf
00000110: d879 2abe 5395 c83e 320f 19bf 10ab 813e
00000120: 53c8 a33e 1959 3dbd 00e2 bfbe 042f 423e
00000130: 1a20 8fbd ecd1 1fbe aca3 50bf b992 74bf
00000140: 802f 1abc 3a79 99bd 6a67 973f 6907 08be
00000150: 7588 943e d116 21bf a3d2 b73e 3dcc 90bf
00000160: 4c39 a43e 024e 35bf 1a91 cb3d 6a23 f63e
00000170: 6b3d cd3d 0819 37be 5a1d b33e aa9d f3be
00000180: b888 1d3f 63e5 553f ef80 0c3e 8abf 32bd
00000190: 832a 893f 8a9f 92bd d808 4c3f 2067 3f3f
000001a0: 9bf1 2bbe 591f d23e dd5c 253f b037 3f3f
000001b0: 4d0b 953d c5b3 4a3f f35d 9a3d b271 1d3f
000001c0: e1f0 00be 97a8 ac3d 96f4 c5bd 9441 f53e
000001d0: d65d fd3c 9c48 8a3d 6010 983d a738 09be
000001e0: 3ea8 21bf 529b fb3e b059 abbe 0e0a c8be
000001f0: 098e 593e 996e 503f 29e5 a23e 1436 0e3f
00000200: 861c 6a3e 4071 ccbd 4277 d6be 0305 633f
00000210: 4d13 6b3e f89c 813e b73b 5f3e 8360 dc3e
00000220: a5b8 0ebf fb41 90bf a17c e03e 1ac3 54bf
00000230: 9560 1a3e 67de 8d3f cdfa bcbc 39b8 d43e
00000240: a35e b2bd 02c6 6dbe 50fa e739 0272 aa3e
00000250: 40c0 9a3e 504e 493d 0a29 153f 0eda e13e
00000260: 4e84 933e 9d6b bf3e 688f 533e b4e5 983d
00000270: 7ccb 1c3f 5ec5 873f 5207 d5bc 08f5 213f
00000280: aef5 1d3e 66ca b6be abe6 f93e 6907 1b3f
00000290: 27d0 543f 836e c13d a630 5d3f 5c05 493f
000002a0: 91c2 273e e4db 1a3f 327d 023f 3e53 683e
000002b0: c40c c939 4de9 be3c e901 4c3f 7fa9 533d
000002c0: 3e06 6dbe 2cd5 45be 942a 343f 102f cb3d
000002d0: ac89 9b3d bcb2 97be 35b9 193f 6fba a6bd
000002e0: dacd debe 6317 923f 5922 cb3d 4ce6 533d
000002f0: 8d2c 873e 683f 2f3f 05d7 243f f426 e83d
00000300: 462f 693e 65a4 ad3d 43c3 9d3e 29f6 d73e
00000310: 5648 d13e 1b75 083e d671 3a3d 0fe7 833f

sequential_3/dense_11/MatMul f4 [10, 10]
-0.48007756 0.2025419 0.75793743 -0.5592797 -0.7089749 -0.0043867794 0.25504476 -0.29111716
-1.3537745 0.6309516 0.43777353 -0.08527228 0.30429256 0.9448822 -1.1929828 -0.06452954
0.059663385 -0.78673106 -0.17116266 -0.88097674 0.004960802 -1.1282519 0.5920475 0.68182427
0.651642 -0.037926927 -0.47592184 0.13468711 -0.6224444 -0.8492071 -1.177202 0.46469328
0.16237156 0.26751626 -0.054905843 -0.22554912 1.1055549 0.04363171 0.17050247 -0.85081786
-0.6537762 -0.8955718 -0.3446663 -1.2248616 -1.2050841 -0.517185 -0.9811873 -0.46186885
-1.3202814 -0.8067947 -0.7367152 -0.7229821 -0.9752794 0.9208923 -0.30309844 0.98663145
0.45165974 -1.2855877 0.19272158 -0.09588411 0.7264709 -0.16989815 -0.93688655 -0.36670712
-0.18982594 0.44930634 -0.193864 -0.02019 0.9299274 0.18555328 -0.30730638 0.1127568
0.4424275 -0.7060101 -0.36793554 0.6590568 -1.0879233 0.8599427 0.3617915 0.06662765
-0.17086582 0.014119196 0.5271463 -0.45298484 -0.065985575 0.23247667 -0.086991146 0.47355762
-0.10796432 -0.15996344 -0.08604345 0.67862034 0.09145644 -0.819124 0.5244559 -1.3048139
-1.0472921 0.20661043 -0.2034107 -0.15402877
00000000: bacc f5be 2567 4f3e 3008 423f f42c 0fbf
00000010: 617f 35bf f9be 8fbb 3a95 823e 4f0d 95be
00000020: 7c48 adbf 0b86 213f da23 e03e 3ca3 aebd
00000030: 3ccc 9b3e cde3 713f a9b3 98bf 1028 84bd
00000040: 9861 743d 3567 49bf 4445 2fbe b187 61bf
00000050: 398e a23b 8f6a 90bf 6d90 173f 098c 2e3f
00000060: 03d2 263f 4459 1bbd 07ac f3be 6beb 093e
00000070: 8458 1fbf a365 59bf 8eae 96bf 47ec ed3e
00000080: bb44 263e e4f7 883e f3e4 60bd 59f6 66be
00000090: d382 8d3f 2ab7 323d 3398 2e3e 33cf 59bf
000000a0: e15d 27bf 3244 65bf 1a78 b0be 44c8 9cbf
000000b0: 3240 9abf 3c66 04bf 172f 7bbf 137a ecbe
000000c0: fbfe a8bf 198a 4ebf 5e99 3cbf 5b15 39bf
000000d0: e9ab 79bf 99bf 6b3f b82f 9bbe e193 7c3f
000000e0: f23f e73e 238e a4bf ce58 453e e35e c4bd
000000f0: fff9 393f c8f9 2dbe ccd7 6fbf 09c1 bbbe
00000100: bb61 42be 7b0b e63e 4984 46be 8065 a5bc
00000110: b90f 6e3f ae01 3e3e 4357 9dbe 0aed e63d
00000120: db85 e23e 14bd 34bf 0c62 bcbe f2b7 283f
00000130: 1241 8bbf 3425 5c3f bc3c b93e 1474 883d
00000140: 73f7 2ebe 3354 673c 0ff3 063f a1ed e7be
00000150: 7223 87bd 5d0e 6e3e 6a28 b2bd 2576 f23e
00000160: 661c ddbd 75cd 23be 8c37 b0bd 10ba 2d3f
00000170: 844d bb3d 1cb2 51bf be42 063f 2404 a7bf
00000180: ab0d 86bf af91 533e e54a 50be b8b9 1dbe

sequential_3/dense_9/MatMul f4 [20, 42]
-0.0040935874 -0.21004272 -0.0008366754 0.44859278 0.0021223805 0.18566908 0.0072868117 0.17194176
0.16229455 0.13247314 -0.01834761 0.18219295 0.060917214 0.13241987 0.12480825 -0.012442261
0.16949633 -1.7303602 -0.13183878 0.18217844 0.18489505 0.17255618 0.06826785 0.16159146
-0.1218567 0.13239172 0.0856858 0.15395173 0.069367126 0.1428253 0.1266121 0.048535857
0.24251498 0.0010715615 0.1322078 0.2564288 0.04569449 0.18620719 -0.004136665 0.13262215
-0.15647894 0.057235572 -0.2901711 -0.050025374 -0.18436737 -0.64508945 -0.04350795 -0.21754003
0.028732836 -0.04560484 0.03342438 -0.082725376 -0.099267356 -0.04182711 0.0344927 0.06350156
-0.03910619 0.12278948 0.0075638993 0.106778786 -0.022746677 0.022006001 -0.08647255 0.06568033
-0.034696817 0.10928985 -0.008148331 0.05937143 -0.017632382 0.1104011 -0.07659073 0.090718344
0.052477848 0.17795101 0.07964305 0.17898735 0.074665226 0.14810072 -0.088103764 0.04366588
-0.07502231 0.02844024 -0.20993076 -1.6925746 0.28116888 -0.22329998 0.3396528 -0.21846682
-0.08113843 -0.18075475 -0.43620527 -0.08520817 -0.61745334 -0.10659018 0.37271273 -0.0029015555
0.28119674 0.040967334 0.018383186 0.002415757 -0.18961197 0.015748598 0.45363244 0.075552665
-0.02877483 -0.008265015 0.0006159843 -0.15552069 0.14850014 -0.8986099 -0.0070915394 0.30260813
-0.007365262 0.28774476 -0.0554604 0.47720852 -0.018540686 0.5367929 -0.020229097 0.5174235
-0.031191424 0.43712175 -0.048292525 0.61189985 -0.09474369 0.58911675 -0.1057132 0.03636211
-0.13828231 1.2004929 -0.101023234 0.52402407 -0.05199827 0.3516962 0.1946418 0.29098338
-0.043638103 0.2249714 -0.11578298 0.088116914 -0.023876559 -0.15771307 0.2678129 -1.38744
-0.1072268 0.15134118 -0.105860986 0.053485237 0.083572075 -0.035717007 0.09296777 0.00038663438
-0.1648866 0.09773775 -0.030725744 0.08621339 0.21491572 0.056333777 0.21732204 0.050432008
-0.22557774 0.006415356 0.0065412754 0.057605755 0.09731796 0.0400509 0.09560856 0.0040991483
0.21006954 -0.1533407 -0.09846087 1.0837032 -0.0501003 0.5704307 -0.09578344 0.414954
-0.21889554 0.33714032 0.1153615 0.1048017 0.066761084 -0.14786232 0.2574541 -0.3918098
0.38461265 -0.19112718 0.098870136 0.011492668 0.0007777808 0.11973888 -0.10430016 0.19920658
-0.21394725 0.19225581 -0.04898989 -0.06394633 0.082473904 0.15685864 -0.16652927 0.34481424
-0.2823281 0.2628373 -0.030361367 -0.25642502 0.017710537 0.13844824 0.106244296 0.33840993
-0.0073328568 0.26367265 0.11090782 -0.032195747 0.80150163 -0.97247887 0.60311705 -0.4801073
0.11203468 -0.41993144 -0.35595343 -0.2070529 0.6429204 -0.15811591 0.23409052 -0.09815203
-0.1360157 0.040757656 -0.20897895 0.014283333 0.5392495 -0.08256318 0.27355316 -0.057467397
-0.056055292 0.11865269 -0.25131643 0.08466422 0.11212167 0.013260559 0.2236663 -0.09759279
-0.011401338 0.052705612 -0.1770433 0.061538212 -0.29333514 0.028225036 0.026681371 0.017752033
0.13032591 0.3249691 0.049758118 0.24026 -0.16895948 0.112641424 -0.20063624 0.16029942
00000000: 8023 86bb 7015 57be 5654 5bba f4ad e53e
00000010: a317 0b3b 0920 3e3e 35c6 ee3b 8011 303e
00000020: 8b30 263e 0aa7 073e ba4d 96bc ca90 3a3e
00000030: 5484 793d 1399 073e 789b ff3d a0da 4bbc
00000040: 7290 2d3e 717c ddbf bf00 07be fc8c 3a3e
00000050: 2155 3d3e 91b2 303e 04d0 8b3d 3b78 253e
00000060: 0190 f9bd b291 073e 097c af3d 86a5 1d3e
00000070: 5a10 8e3d cc40 123e 9aa6 013e 89cd 463d
00000080: d955 783e a373 8c3a 7b61 073e a34a 833e
00000090: 252a 3b3d 19ad 3e3e dc8c 87bb 1ace 073e
000000a0: 043c 20be d96f 6a3d 4e91 94be 68e7 4cbd
000000b0: cdca 3cbe 9524 25bf 6435 32bd d0c2 5ebe
000000c0: 2061 eb3c 24cc 3abd 01e8 083d ec6b a9bd
000000d0: af4c cbbd e752 2bbd 3848 0d3d 1b0d 823d
000000e0: d02d 20bd 0d79 fb3d 96da f73b d6ae da3d
000000f0: 3d57 babc ee45 b43c 8518 b1bd 6983 863d
00000100: 401e 0ebd 5bd3 df3d 9480 05bc 752f 733d
00000110: c971 90bc f919 e23d 9adb 9cbd 8aca b93d
00000120: 03f3 563d ca38 363e e51b a33d 7648 373e
00000130: 15ea 983d b7a7 173e bf6f b4bd feda 323d
00000140: 4ca5 99bd 82fb e83c 17f8 56be 49a6 d8bf
00000150: 5ef5 8f3e c0a8 64be f9e6 ad3e c4b5 5fbe
00000160: e82b a6bd c617 39be 4c56 dfbe 9f81 aebd
00000170: 6c11 1ebf f44b dabd 34d4 be3e 0628 3ebb
00000180: 05f9 8f3e 5dcd 273d 5698 963c ad51 1e3b
00000190: a429 42be 3403 813c 8342 e83e 5bbb 9a3d
000001a0: 31b9 ebbc fc69 07bc 027a 213a d140 1fbe
000001b0: 6c10 183e 4c0b 66bf 2560 e8bb 74ef 9a3e
000001c0: 4c58 f1bb 4853 933e 722a 63bd ad54 f43e
000001d0: a3e2 97bc 426b 093f 7eb7 a5bc de75 043f
000001e0: 2885 ffbc 6cce df3e 62ce 45bd 78a5 1c3f
000001f0: fb08 c2bd 5bd0 163f 2a80 d8bd 70f0 143d
00000200: e199 0dbe c0a9 993f 45e5 cebd 7126 063f
00000210: 23fc 54bd 8611 b43e 2e50 473e c6fb 943e
00000220: debd 32bd e75e 663e a11f edbd a476 b43d
00000230: c698 c3bc 897f 21be c61e 893e a297 b1bf
00000240: b999 dbbd 2ff9 1a3e a5cd d8bd 5613 5b3d
00000250: d627 ab3d ff4b 12bd e365 be3d 30b5 ca39
00000260: 08d8 28be bb2a c83d 8eb4 fbbc a590 b03d
00000270: de12 5c3e 3fbe 663d ab89 5e3e cb91 4e3d
00000280: dafd 66be e837 d23b 3258 d63b 03f4 6b3d
00000290: a34e c73d 6a0c 243d 6cce c33d 2652 863b
000002a0: 781c 573e 5805 1dbe daa5 c9bd c9b6 8a3f
000002b0: f935 4dbd bf07 123f 1c2a c4bd da74 d43e
000002c0: 2726 60be a89d ac3e a642 ec3d 46a2 d63d
000002d0: 09ba 883d 3869 17be 06d1 833e 4b9b c8be
000002e0: f3eb c43e d8b6 43be 6d7c ca3d be4b 3c3c
000002f0: fce3 4b3a a839 f53d 539b d5bd cffc 4b3e
00000300: fd14 5bbe b5de 443e 9fa9 48bd 4bf6 82bd
00000310: 14e8 a83d 8d9f 203e a686 2abe 7e8b b03e
00000320: 4f8d 90be 9c92 863e 67b8 f8bc 244a 83be
00000330: b015 913c 60c5 0d3e 9c96 d93d 1144 ad3e
00000340: 7648 f0bb 1a00 873e a423 e33d b0df 03bd
00000350: 362f 4d3f 60f4 78bf e165 1a3f a0d0 f5be
00000360: 7072 e53d 4101 d7be 873f b6be ad05 54be
00000370: 6e96 243f 23e9 21be 6db5 6f3e ee03 c9bd
00000380: b347 0bbe 80f1 263d 94fe 55be a404 6a3c
00000390: 410c 0a3f e216 a9bd 290f 8c3e ef62 6bbd
000003a0: 3c9a 65bd 2e00 f33d 8cac 80be 6f64 ad3d
000003b0: 0ca0 e53d d142 593c c708 653e bbde c7bd
000003c0: adcc 3abc d7e1 573d d74a 35be 7e0f 7c3d
000003d0: 0630 96be 3138 e73c e492 da3c b66c 913c
000003e0: 2874 053e 5a62 a63e 2bcf 4b3d b806 763e
000003f0: b703 2dbe 8cb0 e63d 9673 4dbe 8825 243e
