Youtube_0531-main/model/keypoint_classifier/keypoint_classifier_R.tflite (tflite, 6672 bytes, 6 tensors)

sequential_1/dense_3/BiasAdd/ReadVariableOp/resource f4 [20]
0.12675022 0.050311517 -0.86090803 -0.23797947 -0.13115817 -0.4879072 -0.8980265 -0.8596634
0.2539865 0.4911286 0.4816523 -0.63577205 0.35212594 0.55208373 -0.9533451 0.7840952
-0.86618006 -0.866474 -0.55126363 -0.7801963
00000000: cfca 013e 7313 4e3d 7864 5cbf e4b0 73be
00000010: 544e 06be f9ce f9be 11e5 65bf e712 5cbf
00000020: 850a 823e 3575 fb3e 219b f63e f5c1 22bf
00000030: da49 b43e 5c55 0d3f 6d0e 74bf 77ba 483f
00000040: fabd 5dbf 3dd1 5dbf 9d1f 0dbf f2ba 47bf

sequential_1/dense_4/BiasAdd/ReadVariableOp/resource f4 [10]
0.27106726 -0.8483679 0.29115742 0.6507117 1.6857078 0.6438398 0.7554826 -0.031172551
-0.07112614 0.3117183
00000000: 54c9 8a3e a42e 59bf 9612 953e 0b95 263f
00000010: 46c5 d73f afd2 243f 4f67 413f 945d ffbc
00000020: 95aa 91bd 8b99 9f3e

sequential_1/dense_5/BiasAdd/ReadVariableOp/resource f4 [10]
-0.2000109 0.90599793 0.2986356 -0.22481911 -0.37361437 0.58276993 -1.3529611 -0.34761474
-0.1971484 0.5850446
00000000: a8cf 4cbe 7bef 673f c4e6 983e fb36 66be
00000010: 624a bfbe 6930 153f d42d adbf 8ffa b1be
00000020: 45e1 49be 7cc5 153f

sequential_1/dense_3/MatMul f4 [20, 42]
-0.30017808 0.2621724 0.16608569 0.66852736 -0.04890108 0.8177046 -0.17772302 0.6025339
-0.028944481 0.31047824 0.17231275 0.2543846 0.03036508 0.27677974 0.04291136 0.48373836
0.1153455 0.5991008 0.061326127 0.043325104 -0.02780436 0.05105468 -0.10885517 -0.051179856
-0.19778053 -0.12285055 -0.072371095 -0.011264711 -0.010577831 -0.10931757 -0.10340934 -0.4117794
-0.25878167 -0.51616466 -0.4324241 -0.033350885 0.23312177 -0.03592391 0.5423923 -0.03425511
0.65127635 -0.08575408 -0.025774091 0.22162342 -0.11276624 0.887115 0.022386275 0.5762981
-0.3775498 0.4266478 -0.96572816 0.33223882 0.34598628 0.2191709 0.14689954 0.18104844
0.13176881 0.18951452 0.15030968 0.1200741 0.33850113 0.123875685 0.083431974 0.087956734
-0.16075644 -0.022901168 -0.33279082 -0.08005881 -0.030351564 0.089658834 -0.054579433 -0.06342943
-0.07628688 -0.17029074 -0.32033467 0.0013455197 -0.2445917 -0.00704062 0.4144615 -0.07983251
0.97500795 -0.27317324 1.2000637 -0.19094612 -0.15430918 0.2415579 0.0892674 -0.23799099
0.04644208 -0.10075664 -0.013672088 -0.096521765 -0.11882144 -0.064578585 0.09661494 0.028658211
0.006425495 0.05668497 0.035239033 0.095126234 0.06489749 0.07372123 0.09815274 0.06311368
-0.004758947 -0.027483119 -0.17120698 -0.07743498 -0.17182589 -0.07981683 -0.048301134 0.07885887
0.009434822 -0.05214271 -0.14076859 -0.45717394 -0.23684508 -0.16205738 -0.10889358 0.07432917
0.07203585 -0.084809706 0.14504287 -0.9194689 0.15971403 -0.75714153 -0.20046985 -0.05237615
-0.027096836 -1.68883 0.024314364 -0.64554083 0.011864533 -0.33239695 -0.86953133 -0.5080637
0.09694068 0.0075837383 -0.00725344 0.08818194 0.09970075 0.056944944 0.14830998 0.029090645
0.061185256 0.10142092 -0.09644996 0.090134345 0.0008318396 0.039654527 0.08575187 0.006784123
-0.08065515 0.2066252 -0.085352704 0.12534374 -0.1868897 0.061743155 -0.124964416 -0.023987446
-0.2692772 0.32398492 -0.1715491 0.2014477 0.16195138 0.026260339 0.44705752 -0.10614013
-0.24750021 0.27590185 0.13593245 -0.15345393 0.09386633 0.26690084 0.022206483 0.21570021
-0.19275175 0.22484066 0.17326997 0.23993964 0.13329858 0.116229035 0.041101452 -0.009594095
-0.0694953 -0.15703693 0.1928921 0.21997797 0.13291532 0.16658437 -0.0038203602 0.05895627
-0.43592173 -0.059868336 -0.012002613 0.21363892 0.05629759 0.14335032 -0.45255104 -0.13497171
-0.79148716 -1.3359196 -0.12978896 0.22371107 0.15057375 0.14339137 0.16986673 -0.044553533
0.13575105 -0.022181889 0.0019159317 0.022669464 0.014960698 0.9896485 0.080740735 0.46170878
0.056776587 0.26853532 -0.096079 0.22515196 -0.066776074 0.24313031 0.014910404 0.17000905
-0.05880289 0.030682456 -0.14869066 -2.31263 0.042041585 0.19201793 -0.07670279 0.11897636
-0.07689188 0.060404 -0.08839065 -0.0013601697 0.11879269 0.15391299 -0.031028194 0.10444049
0.0143269105 0.063459195 -0.13125126 0.010887947 0.104559705 0.13080923 -0.033198915 0.09099188
0.02273483 0.08680104 0.0068763574 0.044505227 -0.27725255 -0.0857023 0.13449556 1.2039412
00000000: f1b0 99be 763b 863e 5e12 2a3e 9c24 2b3f
00000010: 804c 48bd 1755 513f 06fd 35be a93f 1a3f
00000020: fa1c edbc 01f7 9e3e c172 303e b33e 823e
00000030: 30c0 f83c 13b6 8d3e d2c3 2f3d 8eac f73e
00000040: 433a ec3d ac5e 193f 1b31 7b3d aa75 313d
00000050: f8c5 e3bc b61e 513d 76ef debd f8a1 51bd
00000060: fb86 4abe 1299 fbbd 4c37 94bd 9f8f 38bc
00000070: a44e 2dbc e4e1 dfbd 47c8 d3bd c0d4 d2be
00000080: 087f 84be 5e23 04bf b166 ddbe f09a 08bd
00000090: 79b7 6e3e f324 13bd 39da 0a3f 164f 0cbd
000000a0: 0cba 263f d69f afbd 3024 d3bc 40f1 623e
000000b0: fdf1 e6bd f819 633f 6c63 b73c 4688 133f
000000c0: 354e c1be 9571 da3e f639 77bf 351b aa3e
000000d0: 1d25 b13e 566e 603e d56c 163e c364 393e
000000e0: 67ee 063e 1810 423e c8ea 193e 69e9 f53d
000000f0: 0550 ad3e 89b2 fd3d 62de aa3d a922 b43d
00000100: 569d 24be 3b9b bbbc 8f63 aabe e0f5 a3bd
00000110: d8a3 f8bc 0d9f b73d af8e 5fbd 4ae7 81bd
00000120: 4c3c 9cbd b260 2ebe e802 a4be 265c b03a
00000130: 3f76 7abe 00b5 e6bb 4c34 d43e 3a7f a3bd
00000140: 1f9a 793f 5ddd 8bbe b09b 993f 6187 43be
00000150: 3a03 1ebe f45a 773e d4d1 b63d e9b3 73be
00000160: 0d3a 3e3d 7f59 cebd e500 60bc 34ad c5bd
00000170: a858 f3bd c741 84bd 0ede c53d a0c4 ea3c
00000180: f58c d23b 802e 683d ce56 103d 8bd1 c23d
00000190: fae8 843d 28fb 963d 4e04 c93d bf41 813d
000001a0: f1f0 9bbb 4724 e1bc e250 2fbe 3b96 9ebd
000001b0: 20f3 2fbe 0277 a3bd 69d7 45bd c280 a13d
000001c0: 8394 1a3c 9893 55bd a425 10be b412 eabe
000001d0: 8487 72be 5ff2 25be 9903 dfbd e439 983d
000001e0: 8887 933d b6b0 adbd 1e86 143e 5062 6bbf
000001f0: 138c 233e 07d4 41bf f847 4dbe 6088 56bd
00000200: 2ffa ddbc 952b d8bf eb2e c73c 2a42 25bf
00000210: 7563 423c ef2f aabe 9b99 5ebf 7610 02bf
00000220: d688 c63d 0281 f83b 44ae edbb bc98 b43d
00000230: e82f cc3d 1a3f 693d 92de 173e 814f ee3c
00000240: 649d 7a3d c5b5 cf3d 8e87 c5bd 5b98 b83d
00000250: d00f 5a3a c96c 223d ad9e af3d 594d de3b
00000260: 872e a5bd 8e95 533e 66cd aebd 1c5a 003e
00000270: 0360 3fbe 64e6 7c3d 58ed ffbd 5281 c4bc
00000280: b3de 89be 5ae1 a53e 91aa 2fbe 4e48 4e3e
00000290: 95d6 253e ec1f d73c b9e4 e43e ff5f d9bd
000002a0: b270 7dbe 0243 8d3e e031 0b3e 0723 1dbe
000002b0: fe3c c03d 3aa7 883e 5fea b53c 84e0 5c3e
000002c0: b760 45be a13c 663e af6d 313e bdb2 753e
000002d0: 6c7f 083e 7d09 ee3d ff59 283d 8d30 1dbc
000002e0: 8d53 8ebd 4ace 20be 8285 453e e841 613e
000002f0: f41a 083e 1895 2a3e 025f 7abb 217c 713d
00000300: 2231 dfbe 8038 75bd 9ca6 44bc 29c4 5a3e
00000310: 4d98 663d 6dca 123e c5b4 e7be 0636 0abe
00000320: e79e 4abf 6aff aabf 66e7 04be 8414 653e
00000330: 0130 1a3e 30d5 123e 8bf1 2d3e c47d 36bd
00000340: 5302 0b3e cbb6 b5bc 0020 fb3a 50b5 b93c
00000350: b71d 753c 9b59 7d3f 665b a53d 1865 ec3e
00000360: 918e 683d 767d 893e 11c5 c4bd 3c8e 663e
00000370: e5c1 88bd 27f7 783e c44a 743c da16 2e3e
00000380: 4ddb 70bd c659 fb3c 5d42 18be 2102 14c0
00000390: cc33 2c3d 59a0 443e 5a16 9dbd e1a9 f33d
000003a0: 7d79 9dbd 2f6a 773d 2806 b5bd b947 b2ba
000003b0: 9549 f33d 5e9b 1d3e d72e febc e5e4 d53d
000003c0: 6bbb 6a3c e5f6 813d bb66 06be 5c63 323c
000003d0: 6623 d63d dbf2 053e 96fb 07bd f359 ba3d
000003e0: 653e ba3c bec4 b13d 1153 e13b 1d4b 363d
000003f0: 0cf4 8dbe b084 afbd 34b9 093e bf1a 9a3f

sequential_1/dense_4/MatMul f4 [10, 20]
-0.30813313 0.16545863 0.2051124 1.4096153 -0.35505232 -0.12716904 0.0009231738 1.5541469
0.7831094 1.0426785 -0.22217208 -0.045469347 0.8504321 0.7883697 0.98879534 0.5026886
0.056462005 0.5041962 0.38000083 1.1703416 0.58456 0.6210017 0.07552429 0.2063655
0.05950777 0.20684709 -0.011237274 -0.18653092 1.0881275 0.6184267 0.64235055 -0.030390255
0.52846754 0.93741196 0.56603175 1.3662763 0.046974715 -0.20561652 -0.014854109 -0.48181584
-0.46043545 0.38635322 0.47225115 0.3610585 -0.34796935 -1.1043737 -0.1881671 -0.28410718
-0.10584417 0.46843076 -0.1772269 -0.44614843 0.3645225 0.103460915 0.3350215 0.34247383
-0.5569045 0.7806495 0.58603406 -0.082008995 0.18534462 0.3701187 0.10765696 0.09322497
-0.3676766 -0.19162081 0.16082577 0.13669689 0.617353 -0.01133969 1.1483798 0.12623192
0.37341926 0.6530464 -0.15359572 0.9588585 0.07933203 0.11206136 -2.2248478 -0.1356292
-0.5959248 -0.5063056 -0.19461593 0.0015574184 -0.34566194 1.1923087 -0.0031142673 0.25041667
0.95462674 -0.30788112 0.61471134 0.06616659 -0.4958647 -0.81474334 0.49586502 -0.26362684
0.77870095 0.62604165 -0.5630056 0.42643288 -0.28531176 0.19971228 0.6040349 0.26143527
0.044715334 1.1845168 0.3447138 0.66527706 -0.6662158 0.2955119 -0.09567382 0.34890825
0.734394 -0.4148102 0.4673823 -0.24196818 0.1912712 0.15106465 0.10453629 -0.6426637
-0.071431614 -0.07573609 0.20484057 0.19747302 -0.45684797 -0.19177765 0.9907334 0.27717108
0.58439255 -0.57202697 -0.059290145 1.4298103 -0.6292336 -0.15075092 0.015652534 -0.09056398
0.50001365 0.2900735 -0.2744838 0.21719363 0.8454143 0.9616271 0.9775987 0.093290515
0.89543504 0.060738206 0.5667069 0.21158658 -0.0021440182 -0.5696135 0.38380888 0.63179564
0.1630223 0.39608014 -0.05109631 0.8239275 0.44365805 0.73232335 1.0162407 0.4085555
0.8016971 1.0068129 0.70159996 0.84959143 0.64948326 0.010982317 0.052239396 -0.030224059
0.15734065 0.1798711 0.06477333 0.017180549 0.9706277 0.3879484 0.8682879 0.12036112
0.7340356 0.7594482 0.5636722 -0.5877081 0.20292932 -0.19897102 -0.4006899 0.7637834
0.7729425 0.5320836 0.41836175 0.28007066 -0.24867167 0.7366806 0.7831468 0.66406053
0.21643774 0.2519143 0.27869087 -1.3206562 -0.20929933 -0.64058334 0.44467276 -1.2055811
00000000: a0c3 9dbe fd6d 293e fc08 523e 466e b43f
00000010: 6bc9 b5be 9a38 02be 2501 723a 49ee c63f
00000020: dc79 483f 7d76 853f 1481 63be 113e 3abd
00000030: ebb5 593f 99d2 493f b121 7d3f 33b0 003f
00000040: b444 673d 0113 013f 788f c23e c1cd 953f
00000050: b9a5 153f f8f9 1e3f 7bac 9a3d 7a51 533e
00000060: 6bbe 733d b9cf 533e 8b1c 38bc f601 3fbe
00000070: c347 8b3f 3651 1e3f 1671 243f fcf4 f8bc
00000080: a649 073f 3bfa 6f3f 75e7 103f 24e2 ae3f
00000090: 8f68 403d 238d 52be a65e 73bc 91b0 f6be
000000a0: 32be ebbe 17d0 c53e e7ca f13e a9dc b83e
000000b0: 0a29 b2be 1e5c 8dbf e0ae 40be 7f76 91be
000000c0: d4c4 d8bd 28d6 ef3e f87a 35be 916d e4be
000000d0: b1a2 ba3e 51e3 d33d f087 ab3e bb58 af3e
000000e0: 4b91 0ebf a5d8 473f 5406 163f 55f4 a7bd
000000f0: fbca 3d3e 3380 bd3e 417b dc3d bcec be3d
00000100: 1b40 bcbe 3f38 44be 83af 243e 45fa 0b3e
00000110: d90a 1e3f 1bca 39bc 1cfe 923f f142 013e
00000120: cf30 bf3e 0d2e 273f 3248 1dbe c077 753f
00000130: d578 a23d 6d80 e53d e863 0ec0 62e2 0abe
00000140: 878e 18bf 3e9d 01bf 6649 47be 4a22 cc3a
00000150: 9afa b0be 929d 983f bc18 4cbb 9d36 803e
00000160: 6b62 743f 98a2 9dbe b95d 1d3f 5982 873d
00000170: fae1 fdbe 0593 50bf 05e2 fd3e 19fa 86be
00000180: f258 473f 4444 203f 2321 10bf 6955 da3e
00000190: 6214 92be 6081 4c3e 08a2 1a3f d8da 853e
000001a0: 6d27 373d 3f9e 973f 547e b03e 994f 2a3f
000001b0: 1e8d 2abf 564d 973e a3f0 c3bd 1aa4 b23e
000001c0: 3f01 3c3f 0162 d4be bc4c ef3e 82c6 77be
000001d0: 99dc 433e b1b0 1a3e 1f17 d63d 9c85 24bf
000001e0: bd4a 92bd 861b 9bbd bac1 513e 5e36 4a3e
000001f0: fae7 e9be 5c61 44be b4a0 7d3f 5ee9 8d3e
00000200: c09a 153f 5c70 12bf 39da 72bd 0604 b73f
00000210: 7415 21bf 735e 1abe be39 803c 9c79 b9bd
00000220: e500 003f 8484 943e 2489 8cbe 0268 5e3e
00000230: 126d 583f 322d 763f e943 7a3f 190f bf3d
00000240: 3b3b 653f a0c8 783d b413 113f 27aa 583e
00000250: a882 0cbb 31d2 11bf 9982 c43e 5cbd 213f
00000260: 51ef 263e 04cb ca3e 5d4a 51bd eaec 523f
00000270: 2627 e33e 8b79 3b3f 2d14 823f 302e d13e
00000280: 053c 4d3f 3fdf 803f 0e9c 333f d37e 593f
00000290: 8944 263f 2def 333c faf8 553d 7298 f7bc
000002a0: e81d 213e 2130 383e e1a7 843d 39be 8c3c
000002b0: 0f7b 783f 2ca1 c63e 1e48 5e3f e47f f63d
000002c0: c2e9 3b3f 326b 423f d24c 103f 0a74 16bf
000002d0: b4cc 4f3e 0fbf 4bbe 3a27 cdbe 4f87 433f
000002e0: 8fdf 453f a136 083f 8333 d63e 6c65 8f3e
000002f0: c9a3 7ebe 1a97 3c3f 4f7c 483f dfff 293f
00000300: dba1 5d3e e9fa 803e 92b0 8e3e 430b a9bf
00000310: 9052 56be 45fd 23bf 26ac e33e 7b50 9abf

sequential_1/dense_5/MatMul f4 [10, 10]
0.5082818 0.46393755 -0.32141954 -1.040043 -0.08966942 -0.23354776 0.4927938 0.14874898
0.22248565 -0.82098234 -0.19530918 -0.99888587 -0.64867085 -0.42686757 1.6269342 -0.15837598
-0.6463017 -2.0175507 -0.18540764 -1.4732884 -2.0040972 -1.0850763 -1.7498411 0.8366142
0.94046515 -0.035643514 0.54223704 -1.1261784 -2.6381044 -0.08254987 0.76299995 0.2875909
0.90076363 0.24263681 -0.7800675 -0.16830197 -0.3622232 0.14602123 -0.07252981 -0.6511612
-0.7096802 -0.29770893 -0.3287692 -1.3319093 -1.6515367 -0.8493207 -0.63306373 -0.98679054
0.21165144 -0.91105944 0.37959692 -0.4323393 0.6782871 -0.33974352 -0.43117204 0.62006444
-0.63797575 -1.0158086 -0.12843128 0.6906626 -0.057923418 1.1799176 -0.522611 0.8012304
-0.33298144 -0.6001681 -1.061671 -0.07353185 0.4429804 1.1052506 -0.5453557 -0.23952286
-0.3740362 -0.48318213 -0.51461506 0.84616864 -0.25314125 -0.0147952605 0.8750588 0.44908157
-0.80865866 -1.265768 0.5480959 -0.7836891 0.13619745 0.27122128 -0.2739135 0.5955467
-0.18660675 0.12358455 -1.4193438 -0.8583816 0.3659889 -0.1907141 -0.7908031 -0.45338053
0.073549286 0.70950294 0.6395357 -0.026988698
00000000: c21e 023f 3989 ed3e 1a91 a4be 2120 85bf
00000010: 9aa4 b7bd 2527 6fbe 784f fc3e a751 183e
00000020: 47d3 633e e62b 52bf 21ff 47be fcb6 7fbf
00000030: 4b0f 26bf 638e dabe 613f d03f 502d 22be
00000040: 0774 25bf 8d1f 01c0 80db 3dbe b794 bcbf
00000050: 2143 00c0 c8e3 8abf cbfa dfbf 592c 563f
00000060: 53c2 703f effe 11bd 0cd0 0a3f 9d26 90bf
00000070: b4d6 28c0 e80f a9bd f753 433f 1d3f 933e
00000080: 7298 663f c975 783e 81b2 47bf 5a57 2cbe
00000090: 5275 b9be 9786 153e 828a 94bd 80b2 26bf
000000a0: 9aad 35bf 4e6d 98be 7054 a8be 017c aabf
000000b0: 8e65 d3bf 156d 59bf 7710 22bf 4e9e 7cbf
000000c0: 28bb 583e 313b 69bf 875a c23e 945b ddbe
000000d0: 39a4 2d3f ddf2 adbe 95c2 dcbe 8bbc 1e3f
000000e0: 6152 23bf 0406 82bf 7d83 03be 44cf 303f
000000f0: 1b41 6dbd 8a07 973f d6c9 05bf 6f1d 4d3f
00000100: 8b7c aabe 9ea4 19bf d6e4 87bf de97 96bd
00000110: 54ce e23e da78 8d3f 6e9c 0bbf 7b45 75be
00000120: ac81 bfbe a663 f7be d0bd 03bf 829e 583f
00000130: bb9b 81be d267 72bc db03 603f 05ee e53e
00000140: 4104 4fbf b004 a2bf 0350 0c3f d99f 48bf
00000150: 5877 0b3e 84dd 8a3e 643e 8cbe c075 183f
00000160: d715 3fbe e619 fd3d 0fad b5bf e6be 5bbf
00000170: e662 bb3e 8f4a 43be 1272 4abf 7e21 e8be
00000180: 02a1 963d fca1 353f 9db8 233f 6717 ddbc
